experiments/models/policy_dnn_100_800_5_10_1000_FF.pkl (torch, 278688 bytes, 20 tensors)

weight f4 [64, 1]
000000 6e 71 7d bf 17 35 4f bf 4c d9 f0 be 2a b3 77 bf
       -0.99001205 -0.80940384 -0.47040784 -0.9675776
000010 f8 80 8c bd 71 95 62 bf 72 c9 03 3f 18 d6 f7 3e
       -0.06860536 -0.8850928 0.51479256 0.48405528
000020 b5 e4 2f 3e 00 3d 44 3f fc 16 ae bd a6 28 17 3f
       0.17177089 0.7665558 -0.08500478 0.590464
000030 2b aa 33 bf 65 66 46 be 99 6f 69 bf c4 f3 d8 bd
       -0.7018153 -0.19374998 -0.9118591 -0.105933696
000040 45 6f 2b bf ed 3c 6d 3f 69 5a 29 3f 9a 7a 46 3f
       -0.6696666 0.9267109 0.6615358 0.77530825
000050 a8 b4 90 3e 2b a8 0d bf d7 ac 69 3f c8 1d 76 bf
       0.2826283 -0.5533473 0.9127936 -0.9613919
000060 a8 4c 1b bf 12 79 1b bf d9 90 d2 be 8e fb 23 3e
       -0.60663843 -0.60731614 -0.41126135 0.16013929
000070 ed 43 47 bf 23 4a 45 bf 86 23 ed be 64 df 1d 3f
       -0.7783802 -0.7706625 -0.46316165 0.6166899
000080 fd 76 3b bf 7f b7 64 bf 7f 1f 4d bf d4 c2 02 bf
       -0.73228437 -0.8934249 -0.80126184 -0.51078534
000090 06 ed 7a be 1a 35 81 bf 93 6b fc be 82 e1 b1 3c
       -0.2450448 -1.009433 -0.49300823 0.021713976
0000a0 2e 47 34 3e 77 01 2e be aa dd ec bd 9c 1d 27 bf
       0.17605278 -0.16992746 -0.115657166 -0.65279555
0000b0 fb 00 f7 3e a7 8d 82 be fc 8c 1d bf 53 96 77 be
       0.48242936 -0.25498697 -0.6154325 -0.24178438
0000c0 ba 23 2f be b9 96 61 3f 9f 48 0e 3f 2c d3 c0 be
       -0.17103472 0.8812061 0.5557956 -0.3766111
0000d0 69 f8 bc bd fa 08 62 3f dc 5f 2a 3f 86 60 84 3e
       -0.09227068 0.8829495 0.6655252 0.25854892
0000e0 ef 47 b3 be 72 93 51 3f 7a a6 dc 3e 47 6c f7 be
       -0.35015818 0.8186561 0.43095762 -0.48324797
0000f0 d5 34 3e 3f 6f 49 ac 3d da b2 3a bf 90 0c e5 be
       0.74299365 0.08412444 -0.72929156 -0.44736147

weight_ih_l0 f4 [256, 64]
000000 13 ed e2 bd 45 9a f5 bd 2f 0f 64 bc 0d 90 d9 bd
       -0.110803746 -0.11992315 -0.013919636 -0.10623179
000010 04 10 4c 3d 8e cc 23 3d bf b8 2f 3d 26 e9 f4 3d
       0.04981996 0.03999 0.042900797 0.11958532
000020 c7 c4 25 bd 4a e8 97 3c 97 a6 75 3d ba 44 75 3d
       -0.040470865 0.018543381 0.059973326 0.059879996
000030 2a 29 b6 ba 82 b9 b4 3d 7b 3b 48 3c 8d 98 89 3d
       -0.0013897766 0.08824445 0.0122212125 0.0671855
000040 78 16 ff bd fd 7d bb bd 20 b0 c4 bd 7a 7f c2 3c
       -0.124554574 -0.0915489 -0.09603906 0.023742426
000050 2f ec fb 3d 96 a7 00 be 77 79 87 3d cf f9 01 be
       0.12300908 -0.12563929 0.066149645 -0.1269295
000060 2f d1 ca bd 66 bf 73 bd 71 28 8b bd ef ae 5c 3d
       -0.0990318 -0.059508704 -0.06794823 0.053877767
000070 34 7e f9 bd 6d 51 db 3d 26 51 d8 3a 3f 2e 77 3d
       -0.121822745 0.1070889 0.0016503676 0.060346838
000080 1b 72 cf bd fc f7 57 3d 34 a8 3c bd 89 aa a1 bd
       -0.10129186 0.05272673 -0.04605885 -0.07893855
000090 20 60 9f 3b 44 13 10 3d 81 db 63 bb 4d 5c da bc
       0.004863754 0.035174623 -0.0034768286 -0.02665534
0000a0 e2 33 22 3d 57 b0 84 bd 87 46 72 bd 1b 54 81 bd
       0.03960026 -0.06478947 -0.05914929 -0.0631487
0000b0 6c 20 bb 3d 2c f7 d4 bd d2 80 19 3d 86 89 44 3d
       0.09137043 -0.10398707 0.03747637 0.047982715
0000c0 a6 61 cc bd 65 72 a0 bd 6c 1e 88 bd cb 3a fa bd
       -0.099795625 -0.07834319 -0.066464275 -0.12218245
0000d0 bb 17 b5 3d aa 65 02 3e 02 b9 37 ba 61 1a 09 3e
       0.08842417 0.12734094 -0.00070084643 0.13388969
0000e0 4e 1d 9c 3c 18 1e d9 bd b7 b6 c9 bd 17 4f 9d bd
       0.019056942 -0.10601443 -0.09849303 -0.07681101
0000f0 b0 77 dd bd 39 8d 27 bd bd e8 8e 3c ae a6 9d bc
       -0.10813844 -0.040906165 0.017444963 -0.019244518
000100 fb 1d 55 3d dc 87 8d 3d 40 71 33 3e a5 dc 9c 3d
       0.052030545 0.06910679 0.1752367 0.07659272
000110 3b 1d 03 3e 4f 92 b4 3c c6 77 17 be 1f 4d 12 bd
       0.1280412 0.022042422 -0.14791784 -0.03571808
000120 77 0f 8e 3a 3f af 73 3b e3 0e 1b bd ff 81 b7 bd
       0.0010838349 0.0037183312 -0.037855994 -0.08960342
000130 7a 6d 5d bd 83 5e 8a 3d 12 ce 82 3d d9 67 ea 3d
       -0.054059483 0.06756308 0.06386961 0.114455886
000140 78 f4 e5 3c 42 eb a2 bd 2c 9b 25 bd 31 56 40 be
       0.028070673 -0.07955028 -0.040431187 -0.1878288
000150 f7 f6 1b bb ca a1 49 3e 87 a7 19 be 23 7a 48 3e
       -0.0023798326 0.19690624 -0.15005313 0.19577841
000160 71 ca 8c 3d a4 7f 47 3e 2f ce 3c 3e 1b 11 34 be
       0.0687455 0.19482285 0.18438028 -0.1758465
000170 38 84 2d 3e 19 11 8e 3d 57 ab b6 3d 6d b6 ed bd
       0.16944969 0.06936855 0.08919399 -0.116070606
000180 44 9c 07 bd d1 84 90 3d 6d ba c9 3d 8a 96 09 3e
       -0.03310801 0.07056583 0.09850011 0.13436332
000190 fc de 13 bd 44 1a 65 bd ba c6 08 3e 85 f2 c4 bd
       -0.036101326 -0.055933252 0.13357058 -0.096165694
0001a0 ec 26 82 bd 51 fa 01 3d 00 19 94 3d 59 e0 b3 3d
       -0.0635508 0.03173286 0.07231331 0.08783025
0001b0 ab 52 41 be fa 25 d3 3d 5b 58 b6 3d 14 b6 05 3e
       -0.18879192 0.10309978 0.08903571 0.13057739
0001c0 c0 4d 73 3b a1 e4 9a 3c 46 f4 89 3c 90 5d 8f 3b
       0.00371252 0.018907847 0.016840111 0.004375167
0001d0 05 36 2e 3e d7 73 74 bd b9 de 39 3d f5 5d 3f 3d
       0.17012794 -0.059680786 0.04537842 0.046720464
0001e0 30 0a a0 3d 75 20 54 bd 1a ce b0 bc 53 e1 0f 3e
       0.07814443 -0.051788766 -0.021582652 0.14050798
0001f0 87 aa 37 be c8 41 60 bd 61 0b 35 3e 5c 19 ae bc
       -0.17936145 -0.054750234 0.17680122 -0.021252327
000200 b0 71 a2 bd 95 6a fe 3b ac d0 22 3d b3 fd 6e 3d
       -0.079318404 0.0077641704 0.039749786 0.058347415
000210 66 f8 a9 3a 68 87 da 3c bf 55 59 bd 48 23 fc 3d
       0.0012967705 0.026675895 -0.05306029 0.12311417
000220 74 61 9f bd c1 96 b5 3d 97 69 6e 3d 0c c5 f0 3d
       -0.077822596 0.08866645 0.058206167 0.11756334
000230 9e e9 d4 3d 43 8a 45 bd 06 3b ad 3d 30 07 cc bd
       0.103961214 -0.04822756 0.084585235 -0.099623084
000240 69 b6 a2 3d 29 c5 92 bd c5 38 9d bd cf f1 9e bd
       0.07944948 -0.071665116 -0.076768436 -0.07760965
000250 67 50 02 3e ab 04 e4 3c b2 77 a7 bd 45 06 d1 bd
       0.12725984 0.027834257 -0.08177127 -0.10206274
000260 c3 e0 2c 3c e9 b8 0e bd 07 c9 c2 3c 51 e8 af 3d
       0.010551634 -0.034844313 0.023777498 0.08589233
000270 ec 8e b4 bd bf dc f4 bd 49 24 13 3c 9f bd ba 3d
       -0.08816323 -0.119561665 0.008980819 0.091181986
000280 42 6d 8e 3d 17 4a e6 bb 54 c1 1f bd c9 c1 00 3d
       0.06954433 -0.007027875 -0.03900273 0.031434808
000290 4f 43 a3 3d 6b 0a e9 bd c4 68 a7 bc a1 1f d2 3d
       0.079718225 -0.1137894 -0.020435698 0.10259939
0002a0 7f 9f cf 3d a8 d9 df 3d b3 28 24 3d 79 b8 ee 3d
       0.10137843 0.109301865 0.040077876 0.11656279
0002b0 81 85 e6 bd 7a 7f a2 3c 36 bd 15 3c 5d 87 9f 3d
       -0.112559326 0.019836176 0.00913935 0.0778949
0002c0 a2 f6 90 3c 40 76 b5 3d 30 21 d3 bd 2a 37 ab bc
       0.017695729 0.08860445 -0.103090644 -0.020900328
0002d0 f6 19 2a 3d 6f 1a b6 3d 57 b1 10 3d 39 f6 b2 3d
       0.041528665 0.088917606 0.035325374 0.087383695
0002e0 4f bd 30 bd 52 fb 38 bb 4f 9f fa 3d 1c 03 a2 3d
       -0.04314929 -0.002822597 0.12237417 0.07910749
0002f0 dc 43 c1 3d 3c cc d6 bd 8d 80 b5 bb 6e 5d ec bd
       0.09436771 -0.10488173 -0.005539006 -0.11541258
000300 f4 61 2d 3e f1 3e 14 3e 03 ce e6 3d 6c fd a3 bc
       0.16931897 0.14477135 0.11269762 -0.020018302
000310 80 63 bf bc 5f 4d 40 bd b4 e2 20 3c c0 70 78 3d
       -0.023362875 -0.046948787 0.009819675 0.0606544
000320 bd 59 5e bd e5 8d 2b be 80 5c 09 3d b7 fd 1c bd
       -0.0542848 -0.16753347 0.03353548 -0.0383279
000330 52 4d 5e 3d 37 97 e9 3d 6f 38 9e 3d ad ad a2 3c
       0.054272957 0.11405795 0.077256076 0.019858206
000340 80 da 14 bd aa c4 3c bd 95 99 e2 bd 14 a4 16 be
       -0.03634119 -0.04608599 -0.1106445 -0.14711028
000350 d5 1c f0 bd e8 96 68 bd c9 4e e8 bc e7 69 b1 3c
       -0.11724249 -0.05678454 -0.02835788 0.021656943
000360 25 6f 1d bd f6 ef 99 3d 62 d6 3c 3d 1b cf 0a be
       -0.038436074 0.07516472 0.04610289 -0.13555567
000370 c7 37 e3 3d 5c b5 98 bd a3 28 ef 3c a4 55 35 3d
       0.11094623 -0.074564666 0.029194182 0.044271126
000380 29 15 1b 3e 98 57 d9 3d ba 4a b0 3c f4 72 a3 3d
       0.1514479 0.1061241 0.021520007 0.0798091
000390 58 a5 19 bd de aa 30 3d 00 4a 27 3e 92 44 d8 bd
       -0.0375112 0.0431317 0.16336823 -0.10559954
0003a0 bb 50 24 be d9 57 17 3e 66 39 d4 3d 95 70 09 3e
       -0.16046421 0.14779605 0.103625104 0.13421853
0003b0 29 66 c3 bd f4 e4 45 bc f4 49 10 3d 78 16 81 3c
       -0.0954097 -0.012078512 0.035226777 0.015757784
0003c0 29 0c 87 3d de bf a7 bd 69 ca ab bd d1 ff 25 bd
       0.06594116 -0.08190893 -0.08388216 -0.04052717
0003d0 54 ad 9f bb 0a d6 11 be f3 30 1c bd 32 50 d4 3c
       -0.0048729572 -0.14241806 -0.03813262 0.025917146
0003e0 be a8 cb 3d 55 7c f2 bc eb f6 08 be 16 80 e0 3c
       0.099442944 -0.029600302 -0.13375442 0.027404826
0003f0 2f a9 60 bd dd 70 5c 3d c3 88 7b 3d 33 79 fe 3d
       -0.054848846 0.053818572 0.061409723 0.12425461

weight_hh_l0 f4 [256, 64]
000000 66 1f 84 3d 74 2c dc 3d 56 fe 8f bd 61 8b ad 3d
       0.06451301 0.10750666 -0.070309326 0.0847385
000010 92 ce ca bd 1f 3d 9a 3d 12 1a e1 bd 00 88 40 3d
       -0.099026814 0.07531189 -0.10991301 0.0470047
000020 6e 59 60 3d dc b8 2a bd de e4 70 3d 7b 3e f7 bc
       0.054772787 -0.041680202 0.058812015 -0.03018116
000030 5f 8b ec bc 11 4e 56 bd cb 3c 21 bc 6e e7 ed 3c
       -0.028875051 -0.052320544 -0.009841154 0.029041018
000040 19 f7 d1 3c da 93 c2 3d 3e 45 d0 bd 6d 8e 79 3d
       0.02563052 0.09500857 -0.10169457 0.060926843
000050 8a e2 c9 bd af 93 da 3d e3 89 21 bd cb d0 8d bd
       -0.09857662 0.106727 -0.03943814 -0.0692459
000060 43 57 e9 bc cb 8f 8d 3c 68 a6 8b 3d f6 ab 26 3d
       -0.028483992 0.01728048 0.06818849 0.04069134
000070 9a a4 ed 3d 03 75 ea 3d 79 80 cf bd cc e6 a0 3d
       0.11603661 0.114480995 -0.10131926 0.07856521
000080 08 32 ba 3d 90 c1 25 bd 9b fe 8b 3d 52 ba 1e 3d
       0.09091574 -0.0404678 0.068356715 0.038751908
000090 fe 18 ba bd 3c 6e 78 3d 1b 1d 87 3d b6 40 c4 bd
       -0.09086798 0.060652003 0.06597348 -0.09582655
0000a0 4d e9 da bd cb 01 a3 bd 70 aa 80 bd 1c ab af 3d
       -0.1068903 -0.07959326 -0.062825084 0.085775584
0000b0 6a a2 1c 3c 64 ee 4d 3d 40 9f c9 3d 44 b9 2b 3c
       0.009560207 0.050276175 0.09844828 0.0104811825
0000c0 4f 1c 47 bd ca c1 3f 3d c7 0b a7 3d fe bc 02 3d
       -0.04861098 0.04681567 0.08156543 0.03191852
0000d0 d3 14 34 bd 7b fb c2 3d 65 aa 44 bd bd 99 c6 bd
       -0.043965172 0.09520622 -0.048014063 -0.09697292
0000e0 fd 87 b2 bb cd a0 0b 3d 6b 61 62 3d 2a 2d f9 3d
       -0.00544834 0.0340889 0.055268686 0.121668175
0000f0 a1 f5 b1 bc a2 fc 77 bd ad 4c db bd 49 b4 a9 bd
       -0.02172357 -0.060543664 -0.10707984 -0.0828634
000100 f2 20 04 bc cb 0c cb bd 56 57 16 3c 55 2d dd bd
       -0.008064495 -0.099145494 0.009176096 -0.10799662
000110 87 22 0e 3e 71 f1 77 3d a0 9a 15 bd 6c 56 c8 3d
       0.13880359 0.06053299 -0.036524415 0.09782109
000120 be 16 ad 3d 55 c0 f7 bd 1c 9e 0b 3d f8 77 2e 3d
       0.08451603 -0.12097231 0.03408633 0.04259488
000130 29 b2 6c 3c f7 ba 85 bc 9b 5a aa 3c 0d c1 25 3d
       0.014446774 -0.016324503 0.020795157 0.04046731
000140 eb e5 e7 3d c7 d4 dc bd a1 c6 d8 bc e8 dd d3 bd
       0.1132315 -0.107827716 -0.026461901 -0.1034506
000150 e4 c9 08 3d a0 42 c9 bc 13 e7 5b bd 63 65 db 3d
       0.033395663 -0.024567902 -0.053687166 0.10712697
000160 9e 31 37 3d 4d c8 b7 bd 20 91 b9 3d f7 9c 04 bd
       0.044725053 -0.08973751 0.090608835 -0.032376256
000170 84 51 5b 3d 81 6c dd 3d 2c d2 9d bd 11 c8 a1 bd
       0.053544536 0.10811711 -0.07706103 -0.07899488
000180 ef 1a 8e 3d 8c 6a 06 3d c3 9f 14 3d 98 95 1d bd
       0.06938731 0.032816455 0.036285173 -0.03847274
000190 3f 76 d0 3d b4 e3 be 3d 85 f5 bb bb f6 eb 2d 3e
       0.10178804 0.09320775 -0.0057360553 0.16984543
0001a0 c7 76 c2 3c 2e bd 7d bd f8 63 13 be 14 b3 bb 3d
       0.023738278 -0.061947994 -0.14393604 0.09165016
0001b0 ee ab 5b bd 5d c7 cb 3d 45 15 8d 3d 9e 63 9c 3c
       -0.05363076 0.09950135 0.068888225 0.01909047
0001c0 c6 cc 24 3c c7 a8 e4 3d d2 3f 9a bd 15 ee 02 bd
       0.010058587 0.11165004 -0.07531704 -0.031965334
0001d0 a6 4e cc 3d db 67 0f be d2 45 67 3d 7a 87 e9 bd
       0.099759385 -0.14004461 0.05646307 -0.11402793
0001e0 8b 81 a7 3c 77 1f 8f bc 7e dc 0c 3e f4 1d f1 3d
       0.020447513 -0.017471058 0.13755986 0.11773291
0001f0 9a 39 b6 3d dd 1a c0 3c 1a f1 9c bc 78 60 9f 3d
       0.088977054 0.02345031 -0.019157935 0.07782072
000200 28 c2 2d bd 17 bf c2 3d 58 85 ac 3c 80 6b 1e 3e
       -0.04242149 0.09509104 0.021059677 0.15470695
000210 66 ce 00 3d ee 6f 56 bc 75 03 a8 bd be 9e 73 bd
       0.031446837 -0.01308821 -0.082037844 -0.05947756
000220 40 50 a0 bd a3 25 01 3d 8d 5d a2 3d 8e 48 2a 3d
       -0.078278065 0.031530034 0.07928 0.0415731
000230 ff 0c fa 3d 1f 8c 14 be 32 67 19 be ea a6 a8 bd
       0.1220951 -0.14506577 -0.14980772 -0.08234961
000240 59 7b 20 bd 7a 6a 0c bd a2 ca ab 3d 78 1c bd bd
       -0.039180133 -0.03428123 0.083882585 -0.092339456
000250 30 65 e8 bd 1b bd ce bd 3a 22 16 be a7 64 0c 3e
       -0.11347425 -0.10094663 -0.14661494 0.13710271
000260 6b 86 67 bc 8f ca 18 3e 21 09 a5 bd ba 96 9e 3d
       -0.014131169 0.1492102 -0.08058382 0.077435926
000270 ec 9a 79 3d 3e 75 04 be 4a f1 0e bd b4 50 00 be
       0.06093876 -0.1293535 -0.03489808 -0.12530786
000280 ee 3a 78 bc f2 c3 7e 3d 39 e8 9d bd ea bd 80 bd
       -0.015150769 0.062198587 -0.077103086 -0.06286223
000290 91 9b 54 3d b6 8c d3 3d d1 93 2a 3d 3e e0 a1 3d
       0.051906172 0.10329573 0.041644875 0.07904099
0002a0 64 bb d1 bd 78 0f 79 3c 44 76 27 bc 5f 79 d5 bd
       -0.1024082 0.015201442 -0.010221068 -0.1042354
0002b0 e9 09 b7 3d bd c8 bf bd 67 3d da 3c 69 09 0d be
       0.08937437 -0.0936446 0.026640607 -0.13773121
0002c0 76 cf fc bd 40 37 09 3d 5d 67 be 3d f1 c9 9a 3c
       -0.123442575 0.033499956 0.09297059 0.018895121
0002d0 14 15 36 bd 54 62 bc 3d 45 6c a5 bd 57 97 c6 3d
       -0.044453695 0.09198442 -0.080772914 0.096968345
0002e0 1e 16 5c bd 2a b7 3a 3c 5a ae ce bd 4e 56 6c 3d
       -0.05373203 0.011396209 -0.10091849 0.057699494
0002f0 d0 24 20 3d 4a 57 db 3c b8 46 b7 3d d2 26 d0 bd
       0.039097607 0.026775021 0.089490354 -0.101636544
000300 59 aa 90 3d d2 36 35 bd 71 27 5b 3d 5d d5 7c bc
       0.07063741 -0.044241734 0.05350441 -0.015431729
000310 b0 e8 07 3d f8 f8 b7 3c c7 df 8e bc 8d cd 15 3c
       0.033180892 0.022457585 -0.01744069 0.009143245
000320 74 65 10 be ae fd 47 3d 35 c1 46 3d 9f 16 fd 3d
       -0.14101201 0.048825912 0.0485241 0.1235783
000330 6f 8a d7 bd 33 fe e9 3b 04 f1 1c 3e 77 19 1a 3d
       -0.10524451 0.0071408986 0.15326315 0.03762194
000340 92 67 4d 3d c4 fc ef bd ab 08 c8 3d 7b f3 dd 3c
       0.0501476 -0.11718133 0.09767278 0.02709364
000350 f5 65 f3 3c 99 e7 ef 3b 33 ae c6 bd 5d 15 fd 3d
       0.029711703 0.0073213098 -0.097011946 0.1235759
000360 ae 26 8a bd 7e 37 73 bc b0 2d 3e bd 64 4d 75 bc
       -0.06745659 -0.014844773 -0.04643029 -0.014972065
000370 84 ff 8f bd f4 d5 62 3d aa df bd bd 35 5a 33 be
       -0.070311576 0.055379823 -0.09271176 -0.1751488
000380 61 12 23 bd ad b5 96 3d a8 e2 0a 3e 0e 79 fc bd
       -0.03981245 0.07358871 0.13563025 -0.12327777
000390 a9 a4 81 bd 23 e4 4c bd 74 49 03 3e 47 ff 5c 3c
       -0.063302346 -0.050022256 0.12820989 0.013488597
0003a0 a6 14 7c bd 98 6b 25 3e 2a 0c 25 be ff c9 83 bd
       -0.06154313 0.16154325 -0.16117921 -0.06435012
0003b0 67 bb 84 3d 30 78 2e bd 7f 84 1f be 1b 63 c5 3d
       0.06481057 -0.04259509 -0.15577887 0.096380435
0003c0 01 d1 a9 3d d7 0a a8 3c 8b 1c af bd a2 88 ac bd
       0.082918175 0.020512981 -0.08550366 -0.08424498
0003d0 72 c5 3b 3d 96 44 8d 3d 47 7d d7 3c ea 41 a7 bc
       0.045842595 0.06897847 0.026304854 -0.020417172
0003e0 0b 51 8c bc 35 a6 5a bd 27 52 41 3c b2 7a 8a ba
       -0.017128488 -0.053381164 0.011799372 -0.001056513
0003f0 1f 19 81 3d 1c ee 1e bd 55 60 06 3c 9e 0f 87 3c
       0.063036196 -0.038801298 0.008201678 0.016486939

bias_ih_l0 f4 [256]
000000 a6 10 d5 bb 96 5e c9 bd d0 a6 3e 3e ad 4a 94 bd
       -0.006502229 -0.09832494 0.18618321 -0.07240806
000010 1b ed 83 3d 4d b9 04 be 28 e2 94 bd b0 88 06 be
       0.06441709 -0.12961312 -0.072696984 -0.1313808
000020 34 54 3c bc 57 cb 12 3e 2a 95 bf bd 2e 98 33 3e
       -0.011494685 0.1433538 -0.09354623 0.1753852
000030 83 87 0d 3e 27 61 d4 bd 43 ce 1c 3e b6 6b df 3a
       0.13821225 -0.10370093 0.15313058 0.001704565
000040 84 42 ad bd 92 9b 1e 3c 55 28 c6 bd 57 64 1c 3d
       -0.084599525 0.009680646 -0.096756615 0.03818163
000050 bb f3 02 3e 86 cf 0b 3e f3 09 2c 3d 0a eb 08 3e
       0.12788288 0.13653383 0.042001676 0.1337091
000060 eb e8 65 3d f2 ba cd 3d 2e 49 a0 bc 9c 3c 60 3d
       0.05613033 0.100454226 -0.019566145 0.0547453
000070 8b 10 81 bd cf b1 4f 3e 37 ea ce 3d ee ef 0b 3d
       -0.063019834 0.20282672 0.10103267 0.03416436
000080 1d 8d 8b 3c 68 95 11 3e d7 d7 bc 3d e2 77 43 3e
       0.017035061 0.1421715 0.09220856 0.190887
000090 db d1 30 bc 06 c2 e8 bd 99 d4 97 3c 9c b6 25 3d
       -0.010792221 -0.11365132 0.018533992 0.040457353
0000a0 f3 02 9c bd 8e 3d 01 3e 68 3d ff 3c 33 5d 8a 3c
       -0.0761775 0.12621137 0.03115721 0.016890144
0000b0 ac b1 01 bd 04 c3 58 bd b0 67 c7 bd 92 9d c6 3c
       -0.03166358 -0.052920356 -0.09736574 0.024245057
0000c0 dc 5e fe 3a 90 48 dc 3c ed 8b eb 3d 75 a0 b6 3d
       0.0019406932 0.02689007 0.11501298 0.089173235
0000d0 64 60 c0 3d 46 d7 21 3c a6 94 ed 3d df b0 a5 bd
       0.09393385 0.009877985 0.11600618 -0.08090376
0000e0 18 bd 2e 3e 71 a8 d3 bd 08 42 0d 3e d8 dc 7b bd
       0.17064321 -0.10334862 0.1379472 -0.06148991
0000f0 bc 00 f0 bd 2a 01 26 3e 3a c8 29 bd 6c 2a af 3d
       -0.1171889 0.16211382 -0.041450717 0.08553013
000100 93 cf 80 bd aa 08 87 3d 1c 24 fa 3c e6 40 f5 bb
       -0.06289592 0.065934494 0.030534796 -0.007484543
000110 53 1b f4 3b 43 75 53 3d e5 5f a0 bd 53 d1 17 bc
       0.0074495464 0.0516255 -0.078307904 -0.009266215
000120 52 e6 58 3d 6b 40 88 3c c6 81 05 3d 53 9e c9 3d
       0.052954026 0.01663228 0.032594465 0.09844651
000130 96 19 38 3d 4f 26 16 be f9 f3 96 bd 8b 57 b4 3d
       0.044946276 -0.14663051 -0.07370753 0.0880576
000140 f6 57 fa bd 0e 0c c6 bd 3e 62 14 be c0 85 ff 3c
       -0.122238085 -0.09670268 -0.14490601 0.031191707
000150 89 3a 01 be 7f 26 cc bd e8 e5 ec bd ee a4 17 3d
       -0.12619986 -0.0996828 -0.11567289 0.037022524
000160 ab 15 22 3d 31 5f c9 bc 24 6c 49 bd d4 be d8 bb
       0.039571445 -0.024581524 -0.049175397 -0.0066145454
000170 45 a4 69 3d 08 c9 61 3d 2f 68 30 bc 34 b9 23 bb
       0.057041425 0.05512336 -0.010767027 -0.0024982216
000180 5b 91 6c bd 54 35 0b 3c 27 bf d8 bd 82 c8 1d bd
       -0.05775581 0.008496601 -0.105833344 -0.038521297
000190 14 b9 8f 3c b2 95 a2 bc 3f 11 26 be e8 da 56 3d
       0.017544307 -0.01984677 -0.16217516 0.05245486
0001a0 6c 20 18 bd 37 01 aa 3d a3 9e bf bc ea e6 ed bc
       -0.037140295 0.08301013 -0.023391074 -0.029040772
0001b0 18 7b be 3d e8 3e 7e 3c e9 2a e1 bd c2 6c 31 bc
       0.09300822 0.015517928 -0.109945126 -0.010829153
0001c0 21 ec d3 3d b8 ef ac bd f4 19 dd 3d 45 aa 2e bb
       0.103477724 -0.0844416 0.10795966 -0.0026651782
0001d0 42 1a 88 bd 3d 1b f2 bd 7a 0c e6 bd ce eb bc bd
       -0.06645633 -0.118216015 -0.112328485 -0.09224664
0001e0 3a d4 8f 3d 02 44 c4 bd 93 de 03 3d 80 35 ff bd
       0.07022901 -0.09583284 0.032194685 -0.12461376
0001f0 f4 1c 93 3b 6b 96 9f bc 78 e0 d8 3a 24 8d 93 3d
       0.0044895355 -0.019480905 0.0016546389 0.07204655
000200 1b 87 34 3c d3 59 06 3e e6 d9 88 bd d6 67 bc 3d
       0.01101854 0.13120203 -0.06682186 0.09199493
000210 c5 55 04 be 01 e8 13 3c cd 9d 52 bd f3 d5 c2 bd
       -0.12923343 0.009027482 -0.05142002 -0.09513464
000220 c4 3e 53 3e 61 90 dc 3d 81 bc 7e 3d 57 c5 af bc
       0.20629412 0.107697256 0.06219149 -0.021456404
000230 a9 f2 f5 bd f1 29 4f 39 9a 33 56 be ac 0f 04 be
       -0.120091744 0.00019756683 -0.20918122 -0.12896603
000240 61 7d ad bd b0 90 2a 3e 08 b8 80 bd a9 50 1a 3d
       -0.0847118 0.16656756 -0.06285101 0.03767458
000250 4a cc c6 bd 4f 8b 30 3e 56 e0 48 bd b2 20 38 be
       -0.09706934 0.17240642 -0.04904207 -0.17981222
000260 ce 10 34 3d 5f 3c bd bd 05 16 b4 bd fd ba 0e 3e
       0.04396134 -0.092400305 -0.087932624 0.13938518
000270 62 48 8a 3d 34 bf 28 be 4b 06 2a 3d 5e a9 4e 3e
       0.06752087 -0.16479188 0.041509908 0.20181796
000280 da 07 84 bd 40 3a 0a bc 1a 15 e5 bd 23 96 07 bd
       -0.0644681 -0.008436739 -0.111856654 -0.033102166
000290 0b 56 95 bd 51 18 30 3c 6e dc 1b 3e 9a 2a 3a 3d
       -0.07291802 0.010747985 0.15220806 0.045450784
0002a0 9c 89 46 3c de 51 46 be 20 7a 42 3e 48 3e 55 be
       0.01211777 -0.19367167 0.189919 -0.2082454
0002b0 3f cc 92 3c 55 14 49 bc 01 d7 25 bb ba 56 10 3e
       0.017919658 -0.012272914 -0.0025305154 0.14095584
0002c0 c7 ff 54 be b7 39 86 3d e1 ba 4b 3e b9 0a 26 3e
       -0.20800696 0.06553977 0.19895507 0.16215028
0002d0 c3 9d 68 b9 71 5e 1a 3e 57 4a 00 ba 76 0a 30 3e
       -0.00022184015 0.15075089 -0.000489389 0.1719149
0002e0 3d 43 a8 3c a0 f0 54 3d 5c c1 a4 bd 11 bd ae bb
       0.020539874 0.05198729 -0.08044693 -0.005332597
0002f0 2d ba ae bc 59 2d 43 be ce 19 28 be 25 7a 2a bd
       -0.02132901 -0.19060268 -0.16416094 -0.041620392
000300 dd 9a 3e 3d 4b 07 82 bd 65 d7 ae 3d d6 79 1c 3b
       0.046534408 -0.06349047 0.08537177 0.002387633
000310 f9 de 57 3c 54 7d 62 3b 8a 70 4c 3c 52 3d cc 3d
       0.013175719 0.0034559565 0.012478003 0.099726334
000320 5a 67 b4 3c 9b f8 f3 bb f6 02 63 3d 3e 49 39 3e
       0.022021938 -0.0074454076 0.055422746 0.18094346
000330 54 d2 cc bb cb bb 7a 3c 8a 85 66 bc f3 95 a0 3d
       -0.006250659 0.015303562 -0.014069924 0.078411005
000340 f6 d0 0e 3d 4d 51 96 bd d7 20 b1 bd 25 d7 6b 3d
       0.03486725 -0.07339726 -0.08648842 0.057578225
000350 9b 18 91 bc e4 c4 d8 3d e7 e9 04 bd bf e6 47 bd
       -0.017711928 0.10584429 -0.03244963 -0.04880404
000360 f5 95 9a 3d 72 39 a6 3c 1c 95 13 bd a0 f9 6d 3d
       0.07548133 0.020291064 -0.036030874 0.05809939
000370 b5 87 39 3d 2a 0e b5 3d 00 0f b9 3d 7c 32 39 3e
       0.045295436 0.08840592 0.09036064 0.18085665
000380 19 b7 ba bb 90 82 a3 3c a0 39 a7 3d 24 dd c6 bd
       -0.0056980965 0.019959718 0.08165288 -0.09710148
000390 de f0 fd bb a2 40 6c 3d 15 a3 2e bc 86 d8 09 bc
       -0.007749661 0.057678826 -0.010658999 -0.00841344
0003a0 ab 32 77 bd 36 eb 0a bd 31 29 2b 3c fa f6 ff 3d
       -0.060351055 -0.03391572 0.0104468325 0.12498279
0003b0 7d 24 90 3d 14 31 92 3c b9 77 55 bd a6 94 34 bc
       0.070382096 0.017845668 -0.05211613 -0.011021769
0003c0 aa ed a6 bd af 7d a7 bd b0 8f a3 ba ff c8 6a bc
       -0.081507996 -0.08178269 -0.0012478735 -0.014330148
0003d0 98 19 e7 bd c2 8a 0e 3d 18 d3 56 3d 3f d0 ef 3d
       -0.112841785 0.0348003 0.05244741 0.11709642
0003e0 92 02 99 3c 7f 7f dc 3d 7b 94 64 bc fe 9d 4e 3d
       0.018677983 0.107665055 -0.013951416 0.05044364
0003f0 93 2a 3d 3d af 0a 9a 3d 3c 8d 56 3d 5a ab a5 bd
       0.04618318 0.07521569 0.052380785 -0.08089323

bias_hh_l0 f4 [256]
000000 0b b2 96 bd ad 0b 27 3d 36 68 d9 3c b0 9b d1 bd
       -0.07358178 0.04078262 0.02653895 -0.10234773
000010 08 63 43 3e 1d 11 ac 3d 75 cc c5 3d a2 01 2d bc
       0.19080746 0.084017016 0.09658138 -0.010559471
000020 5b 95 57 3d 12 a5 30 3e f4 52 e2 bd c5 20 3f 3e
       0.05263267 0.1725047 -0.11050978 0.18664844
000030 4f bf 1b 3e e3 48 3c be 4b 88 46 3e 94 6b 0c 3c
       0.15209697 -0.18387179 0.19387929 0.0085705705
000040 65 61 46 3c 86 1a 0b 3e 35 7d 9a 3d bd 97 4f 3c
       0.012108182 0.13584337 0.075434126 0.012670455
000050 3d 67 07 3e 43 f9 73 3d 4a 6e 9b 3c 66 5c a2 bd
       0.13222976 0.059563886 0.018973488 -0.0792778
000060 53 16 b8 bd 12 bf 5b 3c 2e 36 d5 3d fa 2b 0d 3e
       -0.08988633 0.013412254 0.104107246 0.13786307
000070 ba fa 67 bd d8 45 97 3c 87 cc 2a bc 91 41 f8 3d
       -0.056635596 0.018465921 -0.01042474 0.12121881
000080 ce bc 9b bc 82 b6 90 bc 61 9e 0c 3e 4a 7e 30 3c
       -0.019010928 -0.017665152 0.13732292 0.010772297
000090 30 d6 d2 bb 12 6e 80 3c df 8b af 3d d9 54 e1 bd
       -0.0064342245 0.015677486 0.085716 -0.110025115
0000a0 4e 80 f6 3c 4c c7 be 3d 0e 3f a1 3d 92 f6 14 bc
       0.030090477 0.093153566 0.07873355 -0.00909199
0000b0 5a c8 13 bb d4 32 c1 bd 62 03 82 3d e4 a9 c6 3d
       -0.0022549839 -0.09433523 0.063483015 0.09700373
0000c0 31 23 40 3e 57 bf 80 bd 11 b2 2e bd 95 fa 99 3d
       0.18763424 -0.06286495 -0.042650286 0.07518498
0000d0 60 d1 e1 3d 46 eb fd 3c ad 59 05 3e d3 9b cf 3d
       0.11026263 0.030995976 0.1302249 0.10137143
0000e0 5f 5f 19 3e 91 84 f9 bd f8 fa 69 bc 5a 1a 05 3d
       0.14977787 -0.12183488 -0.014281027 0.032495834
0000f0 d1 18 85 3d f9 6e 59 3d 6f cd 68 3c f9 e6 23 3e
       0.06498874 0.053084347 0.014209135 0.16006078
000100 1f cf ae 3d ec c1 14 bd 39 ee 33 be f8 38 e9 bb
       0.08535599 -0.03631775 -0.17571343 -0.007117387
000110 fa 8d 44 3d 16 a3 2c bd 92 0c d6 bd 75 a2 ec bd
       0.047986962 -0.04214772 -0.10451616 -0.11554424
000120 24 5e 90 3c 5b 04 80 bd 0f 07 78 3d 33 56 9f 3b
       0.017623015 -0.06250831 0.060553607 0.0048625707
000130 13 95 d8 3c 87 47 22 3d 5e 2e 75 3d c0 2a 94 bd
       0.026438272 0.039618995 0.059858672 -0.072347164
000140 13 6a f5 bd f4 ab 96 3d 8e fe ad bd 1b d5 d7 bd
       -0.11983123 0.07357016 -0.08495818 -0.105386935
000150 c9 a1 1b be 55 93 99 bd 4e 95 b3 3d 37 3a d7 bd
       -0.15198435 -0.074988045 0.08768712 -0.105091505
000160 ec 6f 47 bd 53 2a e8 bd b3 e8 f4 bc 94 87 20 3b
       -0.04869072 -0.11336198 -0.029896116 0.0024494873
000170 46 71 9a bd 85 19 6f bd 3a 21 37 bd 3f 2e f6 bd
       -0.075411364 -0.058373947 -0.04470942 -0.120205395
000180 ab 31 cf 3c d4 36 83 bd 49 b4 8e bd bf 29 36 bd
       0.025292238 -0.06406942 -0.069679804 -0.044473406
000190 a5 4a 97 3d 95 4e 8a 3d dc a1 51 3d c1 f3 c5 bd
       0.07387284 0.067532696 0.05117975 -0.09665633
0001a0 08 dc c7 3c 6e f9 fd 3a 79 22 e3 3c e3 02 ea 3c
       0.024396911 0.0019376704 0.027726399 0.02856583
0001b0 44 0a 48 bd 5a c5 ca bd 33 de 0e be a1 45 2d bd
       -0.048837915 -0.09900923 -0.1395195 -0.04230273
0001c0 ba e9 13 3e 74 8f 71 bd 69 30 a1 bd b8 03 93 3d
       0.14444628 -0.0589747 -0.07870562 0.07178444
0001d0 9e 56 6c bd 8d 87 b7 3c 92 65 9c 3c 4d 4a a0 3d
       -0.057699792 0.022403503 0.019091401 0.07826672
0001e0 b4 0c 2e 3d e3 9d 6b 3d 6c 1d a6 bd eb 2c ad bd
       0.042492583 0.05752362 -0.081110805 -0.08455833
0001f0 ba 78 47 bd c4 93 a1 bd 10 1c 92 bd 98 68 50 bd
       -0.04869912 -0.07889512 -0.07134259 -0.050881
000200 26 20 53 bc 09 2d b2 bd 30 b2 a4 3d ea 7d 18 3c
       -0.012886083 -0.08699996 0.08041799 0.009307364
000210 c3 d3 f2 bd a5 dc 76 3d 1d 16 76 bd 57 59 dc bd
       -0.118567966 0.060269017 -0.060079683 -0.10759228
000220 7c 1c 35 3e cf 45 d5 3d 95 ea f7 bd 9f 5b 08 3c
       0.17686647 0.104137056 -0.1210529 0.008322625
000230 5e ec e6 bc 98 92 b7 bd fa a8 86 bd ce 91 12 be
       -0.02818888 -0.089635074 -0.065751985 -0.14313433
000240 97 b5 29 be 02 c4 14 3e dd 25 0a 3d f6 45 57 3d
       -0.16573177 0.14527896 0.033727515 0.052556954
000250 d2 6b b9 bd a3 4d 28 bd 78 ef 05 bb 0a 09 4e 3c
       -0.09053768 -0.041089665 -0.0020436924 0.012575397
000260 9e 6a 1e bc 8d 44 14 bd 0a 4b b9 bd 87 fd d4 3c
       -0.009668974 -0.036198188 -0.09047516 0.025999798
000270 45 b3 23 3e 5d 89 c8 bb 77 cf d0 bd 0d fc 36 bb
       0.15986355 -0.0061198906 -0.10195821 -0.002792123
000280 e5 f3 c9 bd 40 72 a6 bd ff 77 96 3c dd e9 d3 3d
       -0.09860972 -0.0812726 0.018367765 0.1034734
000290 1e e3 27 be b5 77 1b be b6 d0 dc bc a8 27 d7 bd
       -0.16395232 -0.15182383 -0.02695499 -0.10505611
0002a0 33 36 ac 3c 36 21 53 be 0f e1 3f 3c cd 14 1f be
       0.021021938 -0.20618138 0.011711373 -0.15535279
0002b0 2c 59 8e 3d 56 f1 3a bd 5d 29 76 3d ac e0 af 3a
       0.06950602 -0.045640312 0.06009804 0.0013418398
0002c0 61 0f aa bd 99 4f 09 be e0 a1 bd 3d 98 57 70 3e
       -0.083037145 -0.1340927 0.09259391 0.23470914
0002d0 d8 b0 27 3e 27 4d d0 3c b2 7b 9f 3d 04 8e 55 3e
       0.16376054 0.025427414 0.07787265 0.20854956
0002e0 cb 82 03 bd f3 aa 83 bd 4d ce c0 bd b7 44 ac ba
       -0.032107156 -0.0642909 -0.09414349 -0.0013143037
0002f0 ec 5a 25 bd 6b 2b 2c be 63 c0 eb bd d5 77 35 bd
       -0.040369913 -0.16813438 -0.11511304 -0.044303734
000300 a1 a0 60 3c fc 48 80 bd f7 7c 42 3e 7b 6e 31 be
       0.013710172 -0.06263921 0.18992983 -0.17327301
000310 7f 57 f5 3d 39 b4 e5 bc ff 5b 56 3d b4 5a c4 bd
       0.11979579 -0.028040038 0.052333828 -0.09587613
000320 d2 11 a0 3d e8 10 5c 3d 6d 66 71 3d 4a cf 27 3e
       0.07815899 0.05372706 0.05893557 0.16387668
000330 86 f2 06 3e 55 a3 1c bd 91 41 91 3d 24 37 cd b8
       0.13178453 -0.038241703 0.07092584 -9.7854325e-05
000340 5c b4 8c bd d4 4b 85 3d 13 66 bc 3d c8 99 62 bd
       -0.06870338 0.06508604 0.091991566 -0.05532244
000350 b5 33 04 bd 19 75 10 3d 15 c5 cb 3d 56 4f 21 3e
       -0.032275874 0.035267923 0.099497 0.1575292
000360 82 21 9d bd 5a 08 c1 bc 34 97 b5 bd 08 92 03 3e
       -0.07672407 -0.023563553 -0.0886673 0.12848675
000370 4f f8 f3 3c 08 43 0c 3b e3 0b 58 3d 68 68 f1 bc
       0.029781489 0.0021402258 0.05274571 -0.02946873
000380 4d f4 f3 bc c8 b8 d2 3d eb e1 91 3d cb 01 c8 3d
       -0.029779578 0.102891505 0.071231686 0.09765967
000390 2f 31 2a bd 7b 22 2e 3d 33 83 20 3c 34 a8 a6 bd
       -0.04155081 0.042513352 0.009796905 -0.08137551
0003a0 b4 eb ce 3d c2 4d d0 bd ba 10 b6 bd 30 f9 6f 3d
       0.101035506 -0.10171081 -0.08889909 0.058587253
0003b0 5d ec ba bd 8f a5 eb bc 47 ac 10 3e a1 83 ae ba
       -0.09127114 -0.028765468 0.14128219 -0.0013314375
0003c0 58 12 d7 38 45 06 33 be ab c1 24 bd d8 30 0c bb
       0.00010255416 -0.1748286 -0.04022376 -0.0021391418
0003d0 5a de fe bd 06 a4 0f 3b de 80 03 bd 1c f7 5f bd
       -0.12444754 0.0021917834 -0.03210532 -0.05467902
0003e0 d2 cb 87 3d b7 cc df 3d ba f4 03 3c 67 6e d4 3d
       0.066306725 0.10927718 0.008053953 0.1037262
0003f0 5d 80 a8 bd 4c d4 e5 3d 11 11 16 3c fa af 0b 3e
       -0.08227608 0.11222133 0.009159342 0.13641348

weight f4 [64]
000000 52 86 80 3f d8 fc 77 3f 8f 00 86 3f 18 46 74 3f
       1.0040991 0.96870184 1.046892 0.95419455
000010 86 62 7b 3f f2 16 7b 3f c9 52 7b 3f 7c cd 84 3f
       0.9819721 0.98081887 0.98173195 1.0375209
000020 15 a0 7e 3f d7 87 80 3f 7c b9 7b 3f 13 ce 80 3f
       0.99463016 1.0041455 0.983299 1.0062889
000030 e8 e7 7d 3f 78 95 79 3f 29 4f 82 3f 02 49 7e 3f
       0.99181986 0.97493696 1.0180408 0.9933015
000040 0a d2 81 3f 74 ec 6c 3f 59 af 80 3f 38 5d 81 3f
       1.0142224 0.925483 1.0053512 1.0106573
000050 0d e4 84 3f 6d 56 7a 3f 83 a4 80 3f fe dc 72 3f
       1.0382096 0.97788125 1.0050205 0.9486846
000060 bc b3 7a 3f 73 60 7f 3f 22 5c 82 3f 41 5e 78 3f
       0.979305 0.99756545 1.0184367 0.9701882
000070 63 fd 78 3f 45 a3 78 3f f4 1a 82 3f a2 3d 81 3f
       0.9726164 0.9712413 1.0164475 1.0096934
000080 f5 44 7a 3f 4f 63 79 3f d5 d8 83 3f f0 83 7f 3f
       0.9776147 0.9741716 1.0300547 0.99810696
000090 c7 68 71 3f d0 6c 7b 3f c2 e5 79 3f ae b7 7f 3f
       0.943005 0.9821291 0.9761621 0.9988965
0000a0 92 83 77 3f 9d 53 81 3f 3a 76 7d 3f e0 65 82 3f
       0.96685135 1.0103642 0.99008524 1.018734
0000b0 cb ac 7d 3f 5b 38 82 3f 48 5c 7c 3f 69 01 82 3f
       0.99091786 1.0173448 0.9857831 1.015668
0000c0 90 24 83 3f c1 40 76 3f e5 a3 7e 3f c9 b6 6f 3f
       1.0245533 0.96192557 0.99468833 0.93638283
0000d0 d6 59 82 3f cb 2a 81 3f 89 cb 80 3f 5b 7c 81 3f
       1.0183666 1.0091184 1.0062114 1.0116075
0000e0 8a 71 7b 3f 6a a2 72 3f 19 07 71 3f 39 80 77 3f
       0.9822012 0.94779074 0.94151455 0.9668003
0000f0 1c 07 79 3f bd a3 7f 3f 2d 33 75 3f 63 80 7a 3f
       0.97276473 0.9985922 0.95781213 0.9785215

bias f4 [64]
000000 fc 62 c6 bd 4b 9c 6a bc 05 b8 aa bc d0 12 b9 bd
       -0.096868485 -0.01431949 -0.0208397 -0.09036791
000010 22 90 27 bd ec 62 3a 3d 69 7e 6f bd 2c ee d2 3a
       -0.04090894 0.045504496 -0.058470163 0.0016092709
000020 ae ea 03 bc d0 2e 16 3d d1 3b 0e be b5 ff 91 3d
       -0.0080515575 0.036665738 -0.13890006 0.0712885
000030 de a7 d2 bc 5b 10 91 bc 16 1d 92 3c 4a e9 8c bd
       -0.025714811 -0.017707994 0.017836135 -0.06880434
000040 4e 1d a3 bd 5b 1f 3e 3c 5d 52 57 3d 28 70 06 3d
       -0.07964574 0.011604155 0.052568782 0.032821804
000050 fd 35 33 3d 7a e8 cc bd c5 d6 a4 3b 4b e2 99 bd
       0.04375266 -0.10005279 0.0050304853 -0.07513865
000060 0e b5 34 3d 18 2c 5f bd f8 20 ab bd f8 41 6a 3d
       0.04411798 -0.05448541 -0.08355898 0.05719182
000070 29 74 c9 bd ed 9f 01 bd fa ef 90 3c 8e 16 40 3d
       -0.09836609 -0.031646658 0.017692555 0.04689651
000080 70 13 92 bd 1b 7b 88 bc 26 4b 69 bc a6 32 88 bd
       -0.07132614 -0.016660264 -0.014239108 -0.066502854
000090 e9 85 c0 bc a1 88 e3 bc f2 2a 9e bd 7b 32 94 3d
       -0.023501353 -0.02777511 -0.07723035 0.07236191
0000a0 be e3 85 ba b0 cd ac bc 92 66 88 bd a6 27 ef bb
       -0.0010214967 -0.021094173 -0.06660189 -0.0072984276
0000b0 de 38 9f 3d cf 15 8a 3c 8a 80 ae bd a7 ea 7b bd
       0.077745184 0.016856102 -0.08520611 -0.06150308
0000c0 15 7c 3b bd f2 1e 82 3d f3 72 06 3d ea eb f3 bc
       -0.04577263 0.063535586 0.032824468 -0.029775579
0000d0 c3 9d 5b 3b 6d 6f ac 3d 4a 27 d5 3c 1e f7 dc 3c
       0.0033510781 0.0841969 0.026019711 0.026973303
0000e0 0c b2 57 3c d6 fa 73 3d db a2 f2 bb 56 0a ed ba
       0.013165008 0.059565388 -0.007404668 -0.0018084745
0000f0 35 88 d4 3c 55 da d1 bc cc b0 8d 3b b1 d6 ee bc
       0.025943855 -0.025616804 0.0043240543 -0.029155107

running_mean f4 [64]
000000 00 b8 a7 c3 49 f5 88 c3 af 10 1f c3 f9 ca a3 c3
       -335.4375 -273.9163 -159.06517 -327.58572
000010 7e 67 b9 c1 99 da 95 c3 49 fc 2e 43 12 0b 24 43
       -23.175533 -299.7078 174.98549 164.04324
000020 a3 b7 68 42 ca d3 81 43 86 7e eb c1 62 a7 47 43
       58.179333 259.6546 -29.436779 199.65384
000030 61 7b 6d c3 86 cb 84 c2 a1 63 9a c3 d4 7e 0e c2
       -237.48195 -66.39751 -308.77835 -35.623856
000040 1e 4c 63 c3 80 1e 9d 43 56 26 60 43 2b 1f 83 43
       -227.29733 314.23828 224.14975 262.2435
000050 17 34 c0 42 5f 0a 3b c3 c2 fd 9a 43 f3 c1 a2 c3
       96.10174 -187.04051 309.98248 -325.51523
000060 aa f6 4d c3 de 3e 4d c3 94 47 0b c3 07 55 59 42
       -205.96353 -205.24557 -139.2796 54.333035
000070 82 21 84 c3 76 5f 82 c3 00 66 1d c3 d1 f8 51 43
       -264.26178 -260.7458 -157.39844 209.97194
000080 11 55 78 c3 59 91 97 c3 11 21 88 c3 ac b6 2d c3
       -248.33229 -303.13553 -272.25833 -173.71356
000090 81 1c a6 c2 4c fd aa c3 26 ba 26 c3 91 c5 d4 40
       -83.05567 -341.97888 -166.72714 6.649117
0000a0 32 32 6e 42 ef 14 64 c2 69 23 1e c2 12 3d 5d c3
       59.54902 -57.020443 -39.53458 -221.23856
0000b0 0e 94 24 43 81 dd ad c2 ff 80 51 c3 04 e0 a4 c2
       164.57834 -86.932625 -209.50389 -82.43753
0000c0 0a c5 63 c2 f2 4e 95 43 9f 34 3c 43 c1 ad 00 c3
       -56.94242 298.61676 188.20555 -128.67873
0000d0 97 33 ff c1 aa c7 95 43 b4 23 60 43 e3 3a af 42
       -31.90019 299.55988 224.13947 87.61501
0000e0 de 45 ed c2 83 0d 8a 43 17 51 12 43 8b 75 24 c3
       -118.63646 276.10556 146.31676 -164.45915
0000f0 79 89 7b 43 1b 65 e1 41 f1 db 76 c3 86 cb 17 c3
       251.537 28.174368 -246.85915 -151.79501

running_var f4 [64]
000000 93 9e 83 47 fe 86 2f 47 0b c3 6c 46 9a 0d 7b 47
       67389.15 44934.992 15152.761 64269.6
000010 c3 d3 a0 43 d9 24 52 47 ef 46 8f 46 b3 d3 7b 46
       321.6544 53796.848 18339.467 16116.925
000020 12 65 fd 44 87 ba 1d 47 6a d4 01 44 41 82 ba 46
       2027.1584 40378.527 519.319 23873.127
000030 58 f0 03 47 34 15 25 45 e6 0d 5f 47 5b 01 3e 44
       33776.344 2641.3252 57101.9 760.0212
000040 a9 bc f1 46 e6 03 67 47 d5 15 eb 46 7f e2 20 47
       30942.33 59139.9 30090.916 41186.496
000050 6e db ac 45 d6 af a3 46 1b ce 60 47 18 e2 77 47
       5531.4287 20951.918 57550.105 63458.094
000060 19 7f c6 46 72 18 c5 46 da 87 35 46 e8 ff dc 44
       25407.549 25228.223 11617.963 1767.9971
000070 f6 60 23 47 ba 0d 1f 47 c7 db 67 46 b1 4e ce 46
       41824.96 40717.727 14838.944 26407.346
000080 d6 45 10 47 d2 fa 56 47 6f 6b 2d 47 2f 35 8d 46
       36933.836 55034.82 44395.434 18074.592
000090 4b 1d 81 45 d7 cc 88 47 16 0f 82 46 c9 45 d5 41
       4131.6616 70041.68 16647.543 26.659075
0000a0 a3 bc 04 45 60 61 f3 44 ea 1a 6a 44 31 03 e5 46
       2123.7898 1947.043 936.42053 29313.596
0000b0 c6 7e 7d 46 8a 75 8d 45 d8 65 cd 46 be 68 7e 45
       16223.693 4526.6924 26290.922 4070.5464
0000c0 f8 b2 f2 44 b8 9e 50 47 97 ba a5 46 b4 f7 1a 46
       1941.5928 53406.72 21213.295 9917.926
0000d0 73 62 18 44 3b f1 51 47 35 0a eb 46 cf ac 8f 45
       609.53827 53745.23 30085.104 4597.601
0000e0 ac b5 03 46 11 55 32 47 ed 59 48 46 6b 1f 7d 46
       8429.418 45653.066 12822.481 16199.8545
0000f0 79 04 14 47 84 b4 ed 43 21 91 0e 47 20 a3 57 46
       37892.473 475.41028 36497.13 13800.781

weight_ih_l0 f4 [256, 1]
000000 86 50 a9 bc 14 39 2a 3a 4f bc 9c bd 54 5c 3f bc
       -0.02066828 0.00064934907 -0.076531045 -0.011679728
000010 d9 c9 0f be 5a f8 b2 3d 03 5c bc bd e7 3f 34 bd
       -0.14041843 0.087387756 -0.09197237 -0.044006255
000020 7a fd 95 bd 18 ba 2e bd cf fc 8e bd 47 22 b1 bc
       -0.073237374 -0.04265794 -0.06981813 -0.02162279
000030 db 27 0b 3e 4e 29 e4 bd 23 c1 b1 bb 83 93 f4 3c
       0.13589422 -0.11140691 -0.005424635 0.029855495
000040 bf 95 b6 3d 8b b7 bf bd 8c 7b 45 bd 05 9f 52 3d
       0.089152806 -0.0936118 -0.048213527 0.051421184
000050 a1 a3 cc bd d0 46 c2 3d cf b2 cf bd 0e 03 f4 bd
       -0.09992147 0.09486163 -0.10141527 -0.11914645
000060 c0 d8 c8 bd 3b 59 09 3d 0a b3 28 3d 2b 20 00 bd
       -0.09806967 0.033532362 0.04118637 -0.031280678
000070 2b 83 b1 3d 6f c5 07 3d 05 b5 69 bc 81 29 16 3b
       0.086675964 0.03314727 -0.01426435 0.0022912922
000080 a7 bc e7 bc 33 be 05 bd 8e 98 bc bd 5d 13 b6 bd
       -0.028288199 -0.03265209 -0.09208785 -0.08890412
000090 57 a6 92 bd 20 12 18 be 98 d1 af 3d b4 b6 97 3d
       -0.07160633 -0.14850664 0.08584899 0.07407895
0000a0 52 f6 d4 bd 0a a9 b3 3d b4 c3 fa 3c 82 9c 7e bd
       -0.10398544 0.08772476 0.030610897 -0.062160976
0000b0 4c 44 a0 3d 74 6d 2f 3d 89 d9 a8 3b b7 c4 52 3c
       0.078255266 0.042828992 0.0051528853 0.012864283
0000c0 d1 6e 90 bd 8a 5e 64 bd ff b7 72 bd 36 e4 e6 bd
       -0.070523866 -0.055754222 -0.059257504 -0.112739965
0000d0 4b 36 8e bc 7f 98 73 3d f1 5f 5b bd 0a 8a 49 bd
       -0.017359873 0.059471603 -0.053558294 -0.04920391
0000e0 33 8f ad bd 98 fa 03 ba 58 a7 d0 bd b0 ec d5 bd
       -0.08474579 -0.0005034595 -0.10188168 -0.10445535
0000f0 ae 08 25 3d 99 24 4a bd 6f 9a 02 be 65 42 18 bd
       0.04029148 -0.04935131 -0.12754224 -0.037172694
000100 7c c3 1a 3d 56 cc fe 3d 25 ce eb bd 68 7e 34 3c
       0.037784085 0.12441318 -0.11513928 0.011016466
000110 12 fa 5c 3d 10 65 a7 3d 89 5f da bd ac f9 2b 3c
       0.053949423 0.08173573 -0.10662753 0.010496538
000120 63 91 da bc fe 17 28 be 25 6b 8a 3c 49 fe 60 bd
       -0.026680654 -0.16415402 0.016896794 -0.054930005
000130 35 23 dc 3d fc b4 76 3d 3c 76 9d 3d da 70 a1 bd
       0.10748903 0.060231194 0.07688567 -0.07882853
000140 1b 08 d6 bd 22 98 15 3d 9e 15 d0 bd 17 96 c1 bd
       -0.10450765 0.03652204 -0.10160373 -0.094524555
000150 97 36 a1 3d 7e 9b 0a bd 27 47 a5 3d 1c 52 14 3d
       0.0787174 -0.033839695 0.08070212 0.036211118
000160 5b 5b 34 3c 71 9f 08 be 9e ca 33 bd 23 09 e8 bd
       0.011008109 -0.13342072 -0.043894403 -0.11329868
000170 a9 4f a2 bd ed a6 1c bd 2d 46 d0 3c b5 b3 a0 bd
       -0.0792535 -0.03824513 0.025424087 -0.078467764
000180 6c 47 9c bd 53 46 8d 3d 99 3e 84 3d 64 d4 ed 3d
       -0.0763081 0.06898179 0.06457252 0.11612776
000190 21 f0 a6 bc f1 8c 97 3d 32 8a ad 3d ff 59 01 3d
       -0.020378174 0.07399929 0.08473624 0.031579968
0001a0 72 14 f0 bb a1 3e fc 3d bd 9d 86 3d 70 01 1f 3d
       -0.007326656 0.12316633 0.06573055 0.03881973
0001b0 9c b4 11 be 5d 40 0f bc 97 5e 98 bd d9 81 f0 bb
       -0.14229053 -0.008743373 -0.074399166 -0.007339698
0001c0 46 4b ee bd 8b 37 9e bd 0a f4 97 bd 33 0d 00 3e
       -0.11635451 -0.07725438 -0.07419594 0.12505035
0001d0 11 d7 8d 3d 22 49 01 3e 6f db bf 3c 4c 43 f4 3d
       0.06925786 0.12625554 0.023420064 0.11926898
0001e0 2e 48 88 3c 2b f0 b5 bc 31 a2 c8 3d fd 55 e6 3d
       0.01663598 -0.022209248 0.097965606 0.1124687
0001f0 86 e6 7c bd e2 6c 4a bd 2a dc 49 bd 68 42 77 bd
       -0.06174328 -0.049420245 -0.04928223 -0.060366064
000200 b1 73 f0 3c 1d fb a9 bd 1f b7 88 bd 7d a7 a0 3c
       0.029352041 -0.08299849 -0.066755526 0.019611115
000210 34 b1 53 bd f3 f9 36 3d ff 2a fb 3d 4d 3d 24 3d
       -0.051682666 0.044671964 0.1226406 0.040097523
000220 f9 38 53 3d b9 43 e7 bc e5 e5 a0 3d c4 c2 e0 3d
       0.051568005 -0.028230535 0.07856349 0.109746486
000230 54 f0 00 3e 40 2e a7 3d 42 93 0d 3d be 37 11 3e
       0.12591678 0.08163118 0.034564264 0.1418142
000240 84 0e 66 3d 85 71 96 bc 2d c8 74 3d a0 eb 00 3d
       0.056166187 -0.018364677 0.059761215 0.03147471
000250 22 55 8d bd 82 76 ef bd b6 b1 3d 3a 80 cf 5b bd
       -0.069010034 -0.116925254 0.0007236259 -0.053664684
000260 ec 93 eb bd 52 12 3d bc 96 60 e2 bd 26 bc b0 3a
       -0.11502823 -0.011540012 -0.110535786 0.0013483807
000270 b6 2a 03 be 2f b5 19 3d 97 69 0c 3e 47 ab c4 bd
       -0.12809262 0.037526306 0.13712154 -0.09602981
000280 f1 d7 0c 3d 96 49 25 bd 8e d2 c8 3b 46 8d 28 bd
       0.034385625 -0.04035338 0.0061286157 -0.041150354
000290 d0 d0 47 bd 27 a7 9e bd cf fc d9 3d da 1e aa 3d
       -0.048783123 -0.077467255 0.106439225 0.08306666
0002a0 0d 54 e2 3c f0 84 96 3d f1 9a 89 3d c2 58 f2 3c
       0.02762797 0.073495746 0.06719006 0.029583339
0002b0 07 2a d6 bc 6d 68 4b 3d 1b 48 bb bd d8 9a ab bd
       -0.026143087 0.049660135 -0.091446124 -0.083791435
0002c0 ea ca bd bd 45 df ee 3d 2c 67 1a be 37 d3 13 3d
       -0.092672184 0.11663679 -0.1507842 0.036090102
0002d0 c1 43 37 3d c4 ce 5e bc a6 0d da 3c 19 0d 04 be
       0.04474235 -0.013599101 0.026617836 -0.12895621
0002e0 76 d8 d6 3d 14 b7 4e 3c f5 6b 07 3d 32 45 ae bc
       0.104905054 0.012616891 0.03306194 -0.02127323
0002f0 c7 de 8e bd 38 c8 69 bd ce 81 96 bd c7 7a b5 bd
       -0.06976085 -0.05707571 -0.07348977 -0.088613085
000300 b1 b1 de 3d 0e c2 bf 3b 7c 95 60 3d 74 e7 39 3d
       0.10873736 0.0058519905 0.05483006 0.045386747
000310 d1 27 f9 bd 77 66 46 bd bc 4e 12 bd 25 6a 19 be
       -0.121657975 -0.04843756 -0.03571962 -0.14981897
000320 1a fd e9 bc c8 4c 14 be a6 0a eb bd b5 14 02 3c
       -0.028563071 -0.14482415 -0.114766404 0.007939507
000330 bc 4b 1d 3d 8b 65 01 3d bc e3 91 3d 60 06 aa bd
       0.038402304 0.03159098 0.07123515 -0.08301997
000340 c1 a9 c4 bd 90 eb 40 3d 37 ff ac bd 21 4f 92 bd
       -0.096026905 0.04709965 -0.08447116 -0.07143999
000350 be 12 ec 3d fb 1b 75 bd 35 da b9 3a d7 19 c8 bd
       0.11527012 -0.059841137 0.0014179411 -0.097705536
000360 4c 23 82 bc e7 8f 4d 3d b8 9e 4c 3c 05 5c 11 3d
       -0.015885971 0.050186064 0.012489013 0.035488147
000370 4f ca 31 bd dd 6d aa 3c da 6c 17 3b 27 a1 33 3d
       -0.043405827 0.02080434 0.0023105652 0.04385486
000380 37 35 a3 3d f4 32 69 bd 91 3a c9 bb 79 66 09 3e
       0.07969134 -0.05693336 -0.006141015 0.13417996
000390 b7 ef 0f 3d e1 94 66 3d e3 9a bf 3d 44 31 1e 3d
       0.03514072 0.056294326 0.09355714 0.038621202
0003a0 af b1 ce bd 94 dc d9 3c 2c 56 ae bd 9a f8 a8 bd
       -0.10092484 0.026594438 -0.0851253 -0.08250542
0003b0 30 8a 04 bd 2c a6 c2 3b c4 ec d3 bc 82 dc ee bd
       -0.03235835 0.0059402194 -0.025869735 -0.11663152
0003c0 13 c9 cb bd ad 96 e1 bd ba 3e fc bd d6 0d de 3d
       -0.09950461 -0.11015067 -0.12316652 0.10842483
0003d0 63 ac 94 3d 2e 74 c0 3d 48 dd 02 3e 03 d8 65 3d
       0.07259443 0.093971595 0.12779725 0.056114208
0003e0 90 70 ce ba f2 e4 a0 bd c2 22 83 bd b3 0b ce 3d
       -0.0015750099 -0.07856168 -0.06403114 0.10060825
0003f0 f8 1e bf bb 37 e5 8d 3d a6 ab 5f 3d 01 64 e4 bd
       -0.005832549 0.06928485 0.054607056 -0.11151887
