experiments/models/policy_dnn_100_800_5_10_1000_NF.pkl (torch, 278688 bytes, 20 tensors)

weight f4 [64, 1]
-1.0122176 -0.8100165 -0.39679527 -0.82659304 -0.024054067 -0.91108775 0.59044796 0.5181443
0.19909231 0.8450944 -0.09052438 0.50166506 -0.6505436 -0.31036407 -0.8880937 -0.18999448
-0.6731543 0.9292964 0.76552933 0.79188234 0.23134583 -0.5471899 0.93397355 -0.9394978
-0.6286416 -0.69109464 -0.4317555 0.26630703 -0.71336025 -0.80073136 -0.39103445 0.6139029
-0.7210992 -0.8689923 -0.8242558 -0.47949207 -0.3190473 -1.0405279 -0.4399532 -0.022395013
0.17818232 -0.27334157 -0.06238538 -0.78583974 0.42575407 -0.22449787 -0.6846475 -0.32700148
-0.14709607 0.9143232 0.55491805 -0.37118104 -0.14752701 0.9568456 0.69677746 0.3108131
-0.45477742 0.8846319 0.48055613 -0.43663973 0.73360944 0.03177541 -0.78087425 -0.36683047
00000000: 5990 81bf 3e5d 4fbf c028 cbbe 9a9b 53bf
00000010: 090d c5bc 0c3d 69bf 9927 173f 1ba5 043f
00000020: dbde 4b3e 1b58 583f d964 b9bd 1f6d 003f
00000030: 068a 26bf 0ae8 9ebe 1c5a 63bf ea8d 42be
00000040: d753 2cbf 5ee6 6d3f bbf9 433f cdb8 4a3f
00000050: ece5 6c3e a314 0cbf e418 6f3f ee82 70bf
00000060: a8ee 20bf 94eb 30bf 0f0f ddbe 6559 883e
00000070: c79e 36bf bbfc 4cbf ab35 c8be be28 1d3f
00000080: f599 38bf 4876 5ebf 6e02 53bf fc7f f5be
00000090: 2b5a a3be 0530 85bf 8c41 e1be bf75 b7bc
000000a0: 6d75 363e 6df3 8bbe d087 7fbd cb2c 49bf
000000b0: 70fc d93e c5e2 65be 0f45 2fbf bd6c a7be
000000c0: 5aa0 16be 1611 6a3f 1c0f 0e3f 710b bebe
000000d0: 5211 17be d5f3 743f 0260 323f e522 9f3e
000000e0: 96d8 e8be 3c77 623f 740b f63e 3e8f dfbe
000000f0: d4cd 3b3f ef26 023d 60e7 47bf 34d1 bbbe

weight_ih_l0 f4 [256, 64]
-0.1126374 -0.13716449 -0.036577377 -0.12283437 0.043297585 0.016839031 0.056864753 0.10628635
-0.021377835 0.03301552 0.04607621 0.07923181 -0.010107621 0.0726631 -0.0065032756 0.08392989
-0.11971097 -0.0690036 -0.08785977 0.036174014 0.14125057 -0.13536192 0.0847339 -0.13850723
-0.11913903 -0.0748459 -0.063217305 0.07086347 -0.118386365 0.085222065 -0.0063567245 0.07369742
-0.11162624 0.033182014 -0.067532286 -0.09764734 -0.011572102 0.017687079 -0.006564118 0.0049899165
0.04814554 -0.06790547 -0.048008148 -0.080002815 0.093170665 -0.11908438 0.032457046 0.039281324
-0.10819208 -0.072775476 -0.04370579 -0.13654262 0.06905218 0.13757314 0.016709387 0.1517858
-0.00058950036 -0.09623895 -0.08594393 -0.08817859 -0.094985016 -0.028140122 -0.0015220088 -0.035291295
-0.13483699 -0.1691042 -0.11178738 -0.17370671 -0.06262455 -0.24375176 0.06409185 0.081305556
0.24557066 0.23655963 -0.2776117 0.17513482 -0.2537173 -0.1684718 -0.1794811 -0.008081503
-0.12765735 0.19197711 0.1630129 0.031242333 0.24933736 -0.018298417 0.09728267 -0.027456526
-0.1759607 -0.050252542 0.024730237 0.074758165 0.004981825 -0.2053696 -0.100510366 0.11289112
-0.24349089 -0.17925146 -0.17623775 -0.1264153 -0.27662337 -0.30248234 -0.053415492 0.07913198
0.13335092 -0.14414427 -0.06433124 -0.15485345 -0.005921944 -0.12285604 -0.105213076 -0.07863579
-0.19933172 0.2147191 0.30101612 -0.22540785 -0.08206291 0.16001853 0.29124084 0.29578412
-0.1720777 0.1591601 0.19000049 -0.06533636 0.04344778 0.15609771 -0.06880462 -0.25729716
-0.10967311 -0.04289755 -0.016709292 0.010711226 -0.036739513 -0.033170003 -0.0060812756 0.14146996
-0.024735494 0.13568808 0.015632853 0.16897854 0.06495428 -0.09459864 0.03128995 -0.11106759
0.054586053 -0.014033432 -0.040340442 -0.034631073 0.17899807 -0.008542897 -0.029507982 -0.14378524
-0.044976454 -0.079492316 0.0006426678 0.13446991 -0.11201591 -0.1754112 -0.031122638 0.1339888
0.027590543 -0.05964182 -0.09436124 -0.018528663 0.03110448 -0.16409045 -0.051943943 0.10234617
0.14042981 0.07581722 0.022997562 0.066986494 -0.08042757 -0.028674262 -0.024415318 0.04044104
-0.020440115 0.12338352 -0.046705417 -0.06532804 -0.01188052 0.12958309 0.08603519 0.1383992
-0.098805256 0.03673644 0.16740419 0.033629447 0.1380351 -0.058152664 -0.059052315 -0.16367139
0.08746669 0.03055228 -0.018595492 -0.14840442 -0.10763347 -0.1714949 0.10341085 0.08311758
0.05997717 -0.051319916 -0.087674856 0.09624784 -0.035937205 0.0037727146 -0.039420206 -0.0043904004
-0.0931149 0.08787074 -0.018703694 -0.045277655 0.003782187 -0.15783639 0.08951895 -0.08782374
-0.1496223 -0.04131899 -0.013841296 -0.012468731 0.045898035 -0.20822753 -0.04980261 0.15204583
0.052994344 -0.010348201 -0.109590635 -0.04943356 -0.15726608 -0.07690009 0.08015939 0.023440626
-0.07636468 0.076018155 0.06673062 0.014894273 -0.012601643 -0.11358599 -0.054923773 -0.08154959
-0.02623599 0.007965697 0.05527237 -0.14806189 -0.12549616 -0.03362871 0.080887236 0.14809686
-0.021901792 0.07032112 -0.0363144 -0.0677284 0.047740526 0.14793025 -0.053944957 0.0077409707
00000000: 70ae e6bd d974 0cbe 29d2 15bd 9690 fbbd
00000010: cf58 313d 02f2 893c 04eb 683d a8ac d93d
00000020: 9220 afbc 483b 073d 68ba 3c3d 4a44 a23d
00000030: 6f9a 25bc 64d0 943d 6e19 d5bb 6fe3 ab3d
00000040: 062b f5bd c251 8dbd d3ef b3bd 342b 143d
00000050: fda3 103e 519c 0abe f888 ad3d d7d4 0dbe
00000060: 2aff f3bd cf48 99bd 1378 81bd de20 913d
00000070: 8d74 f2bd e888 ae3d 124c d0bb acee 963d
00000080: 4c9c e4bd dde9 073d 5e4e 8abd 54fb c7bd
00000090: ea98 3dbc 7ee4 903c d017 d7bb 7482 a33b
000000a0: 4234 453d 0612 8bbd 31a4 44bd 84d8 a3bd
000000b0: 43d0 be3d 83e2 f3bd aef1 043d 74e5 203d
000000c0: cf93 ddbd 4f0b 95bd d804 33bd d4d1 0bbe
000000d0: 3b6b 8d3d f9df 0c3e 20e2 883c bd6d 1b3e
000000e0: b388 1aba ed18 c5bd 5f03 b0bd fa96 b4bd
000000f0: 8187 c2bd 1d86 e6bc 247e c7ba 9b8d 10bd
00000100: b512 0abe a729 2dbe c8f0 e4bd 2ce0 31be
00000110: 4d41 80bd 109a 79be 9642 833d 8783 a63d
00000120: e076 7b3e b03c 723e 1f23 8ebe 8b56 333e
00000130: 3ce7 81be df83 2cbe e5c9 37be 4868 04bc
00000140: 9cb8 02be a695 443e dbec 263e ecef ff3c
00000150: 4b52 7f3e 90e6 95bc 233c c73d 82ec e0bc
00000160: 0b2f 34be 9cd5 4dbd 1197 ca3c cf1a 993d
00000170: 943e a33b 694c 52be 61d8 cdbd 7633 e73d
00000180: ad55 79be b28d 37be ab77 34be 0373 01be
00000190: 94a1 8dbe f7de 9abe 34ca 5abd f30f a23d
000001a0: 258d 083e 8e9a 13be 19c0 83bd e791 1ebe
000001b0: de0c c2bb f39b fbbd f479 d7bd cd0b a1bd
000001c0: 9d1d 4cbe 53df 5b3e c91e 9a3e 51d1 66be
000001d0: 9910 a8bd e6db 233e 851d 953e 0471 973e
000001e0: 2335 30be defa 223e 7d8f 423e 12cf 85bd
000001f0: 4df6 313d 14d8 1f3e 70e9 8cbd 74bc 83be
00000200: 4c9c e0bd 57b5 2fbd ede1 88bc 237e 2f3c
00000210: 2c7c 16bd 45dd 07bd 7045 c7bb 80dd 103e
00000220: 17a2 cabc d1f1 0a3e 7810 803c b608 2d3e
00000230: c006 853d efbc c1bd e429 003d 6877 e3bd
00000240: a095 5f3d 7bec 65bc 053c 25bd 50d9 0dbd
00000250: 454b 373e 82f7 0bbc b9ba f1bc 703c 13be
00000260: 3b39 38bd decc a2bd b578 283a 7bb2 093e
00000270: 9968 e5bd fe9e 33be e7f4 febc 5c34 093e
00000280: 9005 e23c fb4a 74bd 7740 c1bd 6cc9 97bc
00000290: d3ce fe3c 5407 28be 2cc3 54bd de9a d13d
000002a0: d5cc 0f3e 0f46 9b3d 6265 bc3c 3730 893d
000002b0: 36b7 a4bd 49e6 eabc a202 c8bc 81a5 253d
000002c0: 0772 a7bc 80b0 fc3d 2e4e 3fbd b5ca 85bd
000002d0: 83a6 42bc 6eb1 043e 3833 b03d 85b8 0d3e
000002e0: 695a cabd f378 163d 016c 2b3e 08bf 093d
000002f0: 1359 0d3e 7d31 6ebd d7e0 71bd 7999 27be
00000300: bc21 b33d c648 fa3c 9355 98bc 54f7 17be
00000310: f06e dcbd 5c9c 2fbe 11c9 d33d 8d39 aa3d
00000320: 9faa 753d d534 52bd e08e b3bd 961d c53d
00000330: e432 13bd a63f 773b 1577 21bd 59dd 8fbb
00000340: 06b3 bebd 93f5 b33d 7d38 99bc 1075 39bd
00000350: 91de 773b dd9f 21be b655 b73d efdc b3bd
00000360: 9736 19be 1a3e 29bd 9ac6 62bc a649 4cbc
00000370: 94ff 3b3d 9939 55be d2fd 4bbd e7b1 1b3e
00000380: 9910 593d 808b 29bc 0e71 e0bd d87a 4abd
00000390: 5c0a 21be cb7d 9dbd 9b2a a43d 8e06 c03c
000003a0: 1665 9cbd 68af 9b3d 10aa 883d 1c07 743c
000003b0: 1f77 4ebc c69f e8bd c0f7 60bd 7903 a7bd
000003c0: dcec d6bc 8e82 023c 4865 623d 899d 17be
000003d0: 1182 00be 42be 09bd 35a8 a53d b4a6 173e
000003e0: 636b b3bc 8504 903d 69be 14bd 30b5 8abd
000003f0: 928b 433d 077b 173e 63f5 5cbd f8a7 fd3b

weight_hh_l0 f4 [256, 64]
0.032004807 0.15782204 -0.07813713 0.059733503 -0.08973583 0.14376906 -0.17350306 0.044313755
0.089700505 -0.07562996 0.013690312 0.00908562 0.017426472 -0.08282881 -0.07228312 -0.009814979
-0.0018179636 0.11740737 -0.1017075 0.012997685 -0.11031403 0.19679263 0.08775354 -0.1606
0.013201468 0.043546833 0.09493967 0.07064511 0.105570264 0.1476811 -0.076935016 0.13770014
0.10816406 0.055189963 0.059267752 0.06014864 -0.08849546 0.08494664 -0.0063484437 -0.08680651
-0.039081097 -0.011676457 -0.08568095 0.0004225897 0.0049143727 0.049030274 0.044734225 0.02535432
-0.061863936 -0.017593862 0.02692278 0.015982842 -0.011563153 0.08563663 -0.025293816 -0.10946223
-0.09674376 -0.035173737 0.1162534 0.08552026 -0.101859465 -0.023289155 -0.14235336 -0.053861946
0.03811555 -0.108725086 -0.02732705 -0.008037735 0.11159843 -0.019415723 -0.016414879 -0.12755911
0.10887481 -0.0811961 0.105286516 0.020891273 0.007013284 -0.09587237 -0.07034953 0.07729772
0.06412346 -0.04514215 -0.06785473 -0.11061822 0.13411546 -0.0868363 -0.015827546 0.0753538
0.05800473 -0.03750398 0.15990154 0.21049832 0.03579057 0.12725355 -0.074265145 -0.15066043
-0.0015811916 0.23068507 -0.036335308 -0.00067878765 0.18336774 0.087719135 -0.06707284 0.060491715
-0.014612166 -0.016474653 -0.14730537 0.16443388 0.031078016 0.1801468 0.072772406 0.037668042
0.08895825 0.11660236 -0.15519242 -0.11524931 0.025458153 -0.056342613 0.11653229 -0.07679829
0.103765994 0.042836078 0.20028558 0.10645538 0.083902635 0.025173226 0.10731762 0.274419
-0.03411868 0.057747144 0.1219095 0.052179694 0.090423495 0.04827264 -0.07570567 0.08152388
-0.07559723 -0.037700143 0.037505623 0.092898525 0.19206919 -0.07946044 -0.15440705 0.016612148
0.10202468 -0.010137171 0.11830048 -0.025530543 -0.1601185 -0.05494197 -0.08297294 0.05151544
0.009746642 0.1915439 -0.14273143 -0.048259065 -0.0025328596 -0.047350053 -0.021624863 -0.07210955
0.00518784 0.12210901 -0.07950098 -0.03795173 0.027772492 0.19373892 -0.010712283 0.12955332
-0.026345948 0.14931656 -0.1006492 -0.13790451 0.15530032 -0.13085088 -0.03535443 -0.16651613
-0.09107453 -0.029649615 -0.045363504 -0.05807165 -0.043388836 0.039996438 -0.06079934 0.041690946
-0.11896689 -0.033886153 -0.03545488 0.0068236813 -0.06261901 0.09761681 0.024604006 -0.1489249
0.11654766 -0.10758923 -0.01696372 0.1404392 0.052777633 -0.043356437 0.043193314 -0.112609774
-0.064700305 0.060301963 0.18843962 0.12540863 -0.11768505 -0.083929464 0.14092293 0.13027859
0.037013657 0.022069726 0.09333516 0.10963495 0.16844952 -0.042654373 -0.037669264 0.109613724
-0.033723682 -0.062245764 -0.0669151 0.22668712 -0.043773387 0.12427283 -0.08829203 -0.23928387
-0.19459 0.19108737 -0.0044269743 -0.06027154 0.024015538 -0.12817127 0.07440951 -0.04155036
-0.1836986 0.19773318 -0.2229381 0.0015897619 0.23576576 0.12117632 -0.10120805 0.17416604
0.2127272 0.017154705 -0.11477988 -0.16215979 0.003693621 0.11688468 0.1619086 0.09002487
0.08043718 -0.0061925887 0.13528888 0.032893065 0.09281101 -0.087582745 0.089051224 0.22297709
00000000: 7917 033d 1a9c 213e 5c06 a0bd 1eab 743d
00000010: 6bc7 b7bd 3238 133e c9aa 31be 5782 353d
00000020: e6b4 b73d e1e3 9abd 554d 603c dadb 143c
00000030: f6c1 8e3c 27a2 a9bd 2c09 94bd 01cf 20bc
00000040: bc48 eeba 4673 f03d 064c d0bd 3ef4 543c
00000050: 52ec e1bd 0284 493e 21b8 b33d 5474 24be
00000060: f84a 583c 2a5e 323d bb6f c23d 62ae 903d
00000070: 3935 d83d b739 173e 1b90 9dbd 4401 0d3e
00000080: 1e85 dd3d df0e 623d bec2 723d 6c5e 763d
00000090: 1c3d b5bd 81f8 ad3d 9b06 d0bb 9dc7 b1bd
000000a0: 8013 20bd 9c4e 3fbc 7e79 afbd 088f dd39
000000b0: bf08 a13b f8d3 483d 3c3b 373d ddb3 cf3c
000000c0: 0a65 7dbd 0121 90bc 298d dc3c 73ee 823c
000000d0: 6173 3dbc 4262 af3d fa34 cfbc bc2d e0bd
000000e0: 9821 c6bd 5612 10bd 4316 ee3d 3f25 af3d
000000f0: b29b d0bd e6c8 bebc 14c5 11be 589e 5cbd
00000100: 0d1f 1c3d 42ab debd fadc dfbc b4b0 03bc
00000110: b88d e43d b90d 9fbc 7f78 86bc db9e 02be
00000120: c2f9 de3d 244a a6bd 75a0 d73d 2d24 ab3c
00000130: b1cf e53b bc58 c4bd 6a13 90bd 444e 9e3d
00000140: 2953 833d fae6 38bd 6cf7 8abd ce8b e2bd
00000150: 9055 093e 3bd7 b1bd c5a8 81bc 1853 9a3d
00000160: 5e96 6d3d c69d 19bd 3bbd 233e df8c 573e
00000170: 2299 123d c14e 023e 5318 98bd ba46 1abe
00000180: fc3f cfba b538 6c3e 55d4 14bd abf0 31ba
00000190: c1c4 3b3e 17a6 b33d 7c5d 89bd 29c6 773d
000001a0: de67 6fbc daf5 86bc 38d7 16be 5b61 283e
000001b0: 5397 fe3c 6778 383e b309 953d ce49 1a3d
000001c0: be2f b63d 38cd ee3d c3ea 1ebe d507 ecbd
000001d0: 9e8d d03c 83c7 66bd 7ba8 ee3d 6c48 9dbd
000001e0: 4483 d43d e274 2f3d aa17 4d3e 4705 da3d
000001f0: 25d5 ab3d 1538 ce3c 57c9 db3d a680 8c3e
00000200: 07c0 0bbd 4588 6c3d b0ab f93d 60ba 553d
00000210: f42f b93d 88b9 453d 930b 9bbd fef5 a63d
00000220: b8d2 9abd 776b 1abd 7f9f 193d 9541 be3d
00000230: c9ad 443e 28bc a2bd e21c 1ebe 3316 883c
00000240: 51f2 d03d 6016 26bc 8647 f23d 6e25 d1bc
00000250: 1bf6 23be d50a 61bd b7ed a9bd db01 533d
00000260: 61b0 1f3c 1624 443e 3028 12be 4cab 45bd
00000270: 55fe 25bb 21f2 41bd a026 b1bc 2cae 93bd
00000280: c2fe a93b 4a14 fa3d 69d1 a2bd 4673 1bbd
00000290: 2383 e33c 7f63 463e 9282 2fbc a0a9 043e
000002a0: 75d3 d7bc 71e6 183e 2b21 cebd d736 0dbe
000002b0: 0c07 1f3e c6fd 05be cfcf 10bd 3483 2abe
000002c0: 4885 babd c0e3 f2bc 15cf 39bd 8adc 6dbd
000002d0: 7eb8 31bd 4ed3 233d bb08 79bd 20c4 2a3d
000002e0: eaa4 f3bd 35cc 0abd 2339 11bd 3099 df3b
000002f0: 653e 80bd 52eb c73d 578e c93c c57f 18be
00000300: 8ab0 ee3d be57 dcbd 80f7 8abc 4bcf 0f3e
00000310: 5c2d 583d 8596 31bd 79eb 303d f49f e6bd
00000320: 9881 84bd 31ff 763d 51f6 403e 1f6b 003e
00000330: dc04 f1bd 36e3 abbd 1a4e 103e c067 053e
00000340: a29b 173d 92cb b43c 8126 bf3d 4a88 e03d
00000350: 087e 2c3e 5ab6 2ebd 164b 1abd 297d e03d
00000360: d821 0abd 6af5 7ebd c90a 89bd ab20 683e
00000370: b94b 33bd c182 fe3d 74d2 b4bd d506 75be
00000380: 9a42 47be 68ac 433e 2710 91bb 4adf 76bd
00000390: 3cbc c43c 543f 03be 0364 983d b630 2abd
000003a0: 7c1b 3cbe 917a 4a3e e349 64be 8f5f d03a
000003b0: 946c 713e 4a2b f83d 2b46 cfbd 9558 323e
000003c0: 29d5 593e 0688 8c3c b711 ebbd 370d 26be
000003d0: ad10 723b 3c61 ef3d 5ecb 253e f65e b83d
000003e0: 40bc a43d 33eb cabb 2b89 0a3e e1ba 063d
000003f0: b313 be3d 955e b3bd 7d60 b63d 1b54 643e

bias_ih_l0 f4 [256]
-0.083185226 -0.27093825 -0.0042935642 -0.3094397 0.017073967 -0.22331394 -0.12484594 -0.13697776
0.10649466 0.37719584 -0.14827758 0.5017911 0.070364766 0.26214835 -0.04755461 -0.07620059
0.10366239 -0.09982791 -0.01576076 0.24209967 0.070537575 -0.057645585 0.27925614 0.006589707
0.24651283 0.03298977 0.02159584 -0.16168056 -0.11470523 0.34531066 0.27944183 0.017547451
-0.16419171 0.33086753 0.19306554 0.30188602 0.058589682 -0.12998672 0.012076544 0.31478217
-0.30150497 0.34349987 0.28319466 -0.14495426 -0.02386969 -0.1675638 -0.2035696 -0.025891563
-0.05383417 0.026551299 0.27963257 0.2739023 0.23429422 0.081030466 0.33635688 -0.15550335
-0.07811003 -0.29835603 0.29702917 -0.24117272 -0.12364938 0.12031056 -0.10504298 -0.02249536
-0.13220495 0.031900257 0.15986145 -0.01622788 -0.13407518 -0.08796997 -0.14686538 0.024045829
-0.12161548 -0.16593687 -0.018745309 -0.05707854 0.010775857 -0.21649821 -0.2031355 0.23471059
-0.17060351 -0.1535547 -0.21109298 -0.04536542 -0.065995686 -0.16277702 -0.08005238 -0.034663282
-0.09395697 -0.018125057 -0.08196445 -0.024979187 -0.06277167 -0.0149857635 -0.086094625 0.06479557
-0.059738178 0.19266777 -0.20657346 -0.17539218 0.05415574 -0.116560966 -0.11878778 -0.08606887
-0.026443833 -0.02876556 0.03442468 -0.06649005 0.14400649 0.048878577 -0.15466855 0.0066990545
0.13273343 -0.2390353 0.13352032 0.034768023 -0.11913503 -0.14463776 -0.13079734 -0.0784525
-0.027986819 -0.13791904 0.0659125 -0.15181394 -0.028275287 -0.05161867 0.040922698 0.18394679
0.08176414 0.048227772 -0.1408906 0.18501467 -0.15779029 -0.21433234 -0.014905534 0.16144325
0.006815472 0.2252201 0.048113618 -0.21500374 -0.30402887 0.3208966 0.16454382 -0.16023852
-0.11711392 0.36152044 0.058839764 -0.084377185 -0.19138616 0.05057323 -0.23944409 0.1302632
-0.15429878 -0.34625432 -0.19373277 0.09864849 0.05195127 -0.24899761 0.052648064 0.24003471
-0.2185354 -0.23035282 0.1963996 -0.26986435 -0.19915295 -0.19069864 0.3638884 -0.147101
-0.16310248 -0.2848563 0.39550132 -0.09705687 -0.10182359 -0.0145989 0.1603704 0.35115355
-0.22611232 0.34527382 0.25249383 0.32318228 0.018449653 0.1725311 -0.36945572 0.33889237
0.11680209 0.114364624 -0.199009 0.25158358 0.27883834 -0.33225212 -0.2198003 -0.073274344
-0.020671824 -0.21544759 -0.07360217 -0.14071359 -0.0514957 -0.071194835 0.011889567 0.21288586
0.23972335 0.15654698 -0.0056054015 0.43570065 -0.11960233 0.3907043 -0.25663322 0.14791834
0.2923633 -0.17454897 0.07745393 0.22824559 -0.06645028 -0.024952145 0.11965882 -0.23764098
0.2970863 -0.096181326 0.046506964 -0.008019321 0.06162622 0.20839809 0.19738263 0.118618615
-0.17650731 0.1973498 0.20864023 0.12965156 0.055176742 0.025398934 -0.088516705 0.32129195
-0.15147237 0.19335857 0.17005368 0.01614219 0.096535236 -0.080626585 -0.20752025 -0.09892791
-0.062647425 -0.101901844 0.23762847 0.03484043 -0.1558846 0.11823418 0.302118 0.044980757
-0.110397264 0.024620635 0.048546758 -0.055303518 -0.0137154795 0.01862446 0.04670361 -0.027121792
00000000: 045d aabd 6bb8 8abe 07b1 8cbb e16e 9ebe
00000010: b4de 8b3c 69ac 64be 3aaf ffbd e643 0cbe
00000020: df19 da3d d01f c13e 14d6 17be 6275 003f
00000030: 671b 903d 4f38 863e 9fc8 42bd 0e0f 9cbd
00000040: f24c d43d 9372 ccbd b61c 81bc fae8 773e
00000050: 0176 903d c71d 6cbd a9fa 8e3e 78ee d73b
00000060: dc6d 7c3e 4820 073d c2e9 b03c 978f 25be
00000070: 93ea eabd 8fcc b03e 0013 8f3e acbf 8f3c
00000080: df21 28be 7867 a93e f9b2 453e ce90 9a3e
00000090: bcfb 6f3d 3d1b 05be b2dc 453c 212b a13e
000000a0: dc5e 9abe 37df af3e e4fe 903e e46e 14be
000000b0: 5e8a c3bc d895 2bbe 8d74 50be 8b1a d4bc
000000c0: 3881 5cbd 1c82 d93c 002c 8f3e ec3c 8c3e
000000d0: d3ea 6f3e 4df3 a53d f836 ac3e 453c 1fbe
000000e0: 27f8 9fbd 1fc2 98be 3514 983e fbf5 76be
000000f0: e33b fdbd 6265 f63d c620 d7bd 3048 b8bc
00000100: bc60 07be d8a9 023d b8b2 233e 55f0 84bc
00000110: 014b 09be 9a29 b4bd e163 16be c2fb c43c
00000120: 8911 f9bd 5beb 29be c38f 99bc 30cb 69bd
00000130: 388d 303c b5b1 5dbe c102 50be f957 703e
00000140: b0b2 2ebe 713d 1dbe c228 58be 17d1 39bd
00000150: bf28 87bd 05af 26be 81f2 a3bd 16fb 0dbd
00000160: 836c c0bd 007b 94bc fadc a7bd 27a1 ccbc
00000170: 6f8e 80bd d986 75bc 6152 b0bd 8ab3 843d
00000180: 05b0 74bd b34a 453e fe87 53be 029a 33be
00000190: 69d2 5d3d 84b7 eebd 0247 f3bd e044 b0bd
000001a0: bda0 d8bc c0a5 ebbc e500 0d3d ef2b 88bd
000001b0: 7076 133e e734 483d 6f61 1ebe be83 db3b
000001c0: 46eb 073e abc5 74be 8db9 083e ea68 0e3d
000001d0: 11fd f3bd ec1b 14be bdef 05be b4ab a0bd
000001e0: 9d44 e5bc a63a 0dbe 22fd 863d 1d75 1bbe
000001f0: 93a1 e7bc 196e 53bd 8f9e 273d 8c5c 3c3e
00000200: f573 a73d 7c8a 453d a045 10be 7c74 3d3e
00000210: c793 21be f079 5bbe 5736 74bc 6151 253e
00000220: 5354 df3b 19a0 663e c912 453d f129 5cbe
00000230: aca9 9bbe 8f4c a43e 2d7e 283e 9115 24be
00000240: 6cd9 efbd 3519 b93e f701 713d f2cd acbd
00000250: bcfa 43be e025 4f3d d530 75be b763 053e
00000260: 8000 1ebe 3f48 b1be e261 46be 3808 ca3d
00000270: dbca 543d 3bf9 7ebe 7fa5 573d a9cb 753e
00000280: bec7 5fbe 9ce1 6bbe fa1c 493e a92b 8abe
00000290: c0ee 4bbe 8146 43be 954f ba3e a5a1 16be
000002a0: 5604 27be afd8 91be 267f ca3e c1c5 c6bd
000002b0: e388 d0bd 3a30 6fbc 2338 243e 66ca b33e
000002c0: fd89 67be bbc7 b03e df46 813e 2678 a53e
000002d0: ba23 973c feab 303e 4d29 bdbe 4d83 ad3e
000002e0: ef35 ef3d 0038 ea3d 04c9 4bbe 90cf 803e
000002f0: e6c3 8e3e f31c aabe 5413 61be dc10 96bd
00000300: f557 a9bc 4b9e 5cbe bcbc 96bd 3917 10be
00000310: 28ed 52bd 99ce 91bd 75cc 423c c0fe 593e
00000320: 0a7a 753e da4d 203e 84ad b7bb 2814 df3e
00000330: 11f2 f4bd 650a c83e 6e65 83be e877 173e
00000340: a4b0 953e f7bc 32be 2ba0 9e3d 36b9 693e
00000350: 1617 88bd 7168 ccbc af0f f53d 2858 73be
00000360: b21b 983e b7fa c4bd 167e 3e3d 7863 03bc
00000370: c66b 7c3d 4f66 553e ac1e 4a3e 51ee f23d
00000380: 55be 34be 1116 4a3e c9a5 553e 61c3 043e
00000390: 0201 623d 6d11 d03c 3f48 b5bd 6180 a43e
000003a0: 931b 1bbe caff 453e 8d22 2e3e a03c 843c
000003b0: 44b4 c53d 8d1f a5bd 3080 54be b79a cabd
000003c0: 4b4d 80bd eab1 d0bd e154 733e d7b4 0e3d
000003d0: 36a0 1fbe c324 f23d 36af 9a3e be3d 383d
000003e0: f617 e2bd 37b1 c93c f7d8 463d f185 62bd
000003f0: e4b6 60bc 5392 983c 494c 3f3d 852e debc

bias_hh_l0 f4 [256]
-0.15026477 -0.13183099 -0.16393794 -0.33937928 0.14346452 -0.009683764 0.044432566 -0.016156182
0.17062216 0.40634674 -0.16524112 0.5130549 0.08424946 0.18197711 -0.00680594 -0.06933455
0.20036986 0.026335198 0.15642993 0.21658844 0.07488461 -0.13461544 0.25622752 -0.20639728
0.10049613 -0.05405229 0.14526895 -0.07856313 -0.108320996 0.16095008 0.16798453 0.10460184
-0.20023751 0.17103067 0.23817997 0.12177083 0.06294764 -0.0006579011 0.079258695 0.16430074
-0.19523744 0.31044176 0.33077136 -0.17093644 0.005538938 -0.20897867 -0.042720735 0.04686739
0.1318591 -0.06320372 0.12197027 0.25991407 0.25062305 0.1021486 0.35057563 0.026772156
-0.098975316 -0.3168427 0.14480093 -0.14718673 0.058528513 0.011281205 -0.049382973 0.05203525
0.016046885 -0.07035162 -0.046387035 -0.015860697 -0.093537964 -0.18174301 -0.17307372 -0.08223245
-0.15694651 -0.24507704 0.009213902 -0.15066274 -0.0077321236 -0.030249184 -0.06956933 0.07430592
-0.1681965 0.01671819 -0.15114494 -0.18194385 -0.09177996 -0.13808239 0.12330757 -0.17677751
-0.18221924 -0.106905535 -0.06268518 -0.015915059 -0.19522418 -0.12848313 -0.120036945 -0.05291191
0.02330971 0.120101705 -0.17042005 -0.18134429 0.11048451 -0.029181387 0.09456718 -0.23517989
0.03509341 -0.109837815 0.08554236 -0.008883335 0.0021604763 -0.06564846 -0.18424298 -0.02477446
0.17370185 -0.21356861 -0.05314499 0.10921773 -0.110378414 -0.004017963 0.0006222633 0.09206085
-0.055723183 0.015437483 -0.047393255 -0.111759014 -0.08146394 -0.11103291 -0.03207443 0.061019212
0.05785949 -0.16997391 0.006349477 0.1023268 -0.14712486 -0.16309053 -0.023565251 0.14898556
-0.022612054 0.22166 -0.13513084 -0.1852247 -0.21212561 0.23106511 0.30797386 -0.17440678
-0.19813435 0.3402318 0.15541825 -0.06949482 -0.18485452 -0.16292274 -0.1924454 0.32264984
-0.20792891 -0.2900525 -0.19627541 -0.014736807 0.1442936 -0.09032509 -0.090820126 0.035424575
-0.25267705 -0.30318812 0.3266244 -0.1332896 -0.2901873 -0.35327107 0.18472649 -0.29760823
-0.15419853 -0.29736584 0.21729407 -0.044164564 -0.050237264 -0.04796651 0.22299896 0.21154015
-0.10114242 0.14564027 0.14613271 0.39574158 0.1824324 0.04720726 -0.29109368 0.37552735
0.064155124 -0.00191379 -0.21270555 0.2556019 0.2597975 -0.30978364 -0.17075214 -0.075957686
-0.05349597 -0.21459623 0.030955678 -0.31637362 0.055124283 -0.10269102 0.051745437 0.01728394
0.29586023 0.21771967 -0.0020926055 0.41863373 0.018432422 0.33715874 -0.17163737 0.06940965
0.18879272 -0.036065947 0.2559337 0.11534454 -0.08101429 -0.095528245 0.25160524 -0.031307295
0.14487973 -0.14003584 -0.00612939 0.0623682 0.046112362 0.12213258 0.15976793 -0.09170706
-0.20058882 0.28028166 0.19821896 0.32441115 0.02137543 0.010233511 -0.06806086 0.24832977
0.009914407 0.12556326 0.07070811 -0.05025317 -0.06511844 -0.1272377 -0.014122135 -0.08923759
0.018963002 -0.19494772 0.1986526 0.04703153 -0.16749023 0.085625626 0.21756549 -0.12679459
-0.06276851 0.026232693 0.07055222 -0.0020207742 -0.14217442 0.055629633 0.0034819369 0.19018465
00000000: 02df 19be b4fe 06be 59df 27be 1fc3 adbe
00000010: 5de8 123e a6a8 1ebc ecfe 353d f859 84bc
00000020: 93b7 2e3e ae0c d03e f834 29be 9157 033f
00000030: fb8a ac3d 3558 3a3e 5d04 dfbb 46ff 8dbd
00000040: c22d 4d3e eabc d73c 2b2f 203e 5cc9 5d3e
00000050: 1a5d 993d a1d8 09be 4130 833e cf59 53be
00000060: ead0 cd3d ef65 5dbd 62c1 143e b5e5 a0bd
00000070: 66d7 ddbd 19d0 243e 2304 2c3e 7d39 d63d
00000080: 100b 4dbe aa22 2f3e 73e5 733e fc62 f93d
00000090: b1ea 803d ff76 2cba 6252 a23d 743e 283e
000000a0: 53ec 47be 39f2 9e3e dd5a a93e f609 2fbe
000000b0: fb7f b53b 81fe 55be f0fb 2ebd 05f8 3f3d
000000c0: 1206 073e f470 81bd 8dcb f93d 7513 853e
000000d0: aa51 803e 4933 d13d a67e b33e 4851 db3c
000000e0: 92b3 cabd 3539 a2be b246 143e 1eb8 16be
000000f0: 98bb 6f3d ced4 383c cd45 4abd ea22 553d
00000100: c274 833c 8314 90bd 5500 3ebd 4bee 81bc
00000110: d590 bfbd d71a 3abe 3d3a 31be 7d69 a8bd
00000120: 96b6 20be 7af5 7abe e8f5 163c 5547 1abe
00000130: c15d fdbb 23cd f7bc 5d7a 8ebd b42d 983d
00000140: b43b 2cbe 96f4 883c bdc5 1abe 7d4f 3abe
00000150: 22f7 bbbd 7865 0dbe ae88 fc3d 2a05 35be
00000160: ae97 3abe 4af1 dabd 1661 80bd 4c60 82bc
00000170: d9e8 47be 1591 03be eed5 f5bd 29ba 58bd
00000180: 01f4 be3c e2f7 f53d 9882 2ebe 51b2 39be
00000190: b445 e23d ce0d efbc 70ac c13d ffd2 70be
000001a0: 1cbe 0f3d a6f2 e0bd d530 af3d 688b 11bc
000001b0: c796 0d3b b372 86bd 31aa 3cbe cff3 cabc
000001c0: e6de 313e bbb1 5abe 90ae 59bd 8cad df3d
000001d0: 140e e2bd 1ea9 83bb 621f 233a 668a bc3d
000001e0: fe3d 64bd 7fed 7c3c 6e1f 42bd e9e1 e4bd
000001f0: 91d6 a6bd 3965 e3bd 7a60 03bd 48ef 793d
00000200: 13fe 6c3d a40d 2ebe 460f d03b b790 d13d
00000210: e6a7 16be 3401 27be ea0b c1bc ac8f 183e
00000220: ea3c b9bc d7fa 623e bd5f 0abe 8bab 3dbe
00000230: 7537 59be 559c 6c3e c0ae 9d3e b197 32be
00000240: bbe3 4abe dd32 ae3e f625 1f3e 4d53 8ebd
00000250: 814a 3dbe 38d5 26be 6810 45be 5c32 a53e
00000260: 51eb 54be c381 94be 6cfc 48be a672 71bc
00000270: b4c1 133e 5cfc b8bd e7ff b9bd 5c19 113d
00000280: e35e 81be 793b 9bbe 503b a73e 127d 08be
00000290: 6e93 94be f2df b4be f128 3d3e 1b60 98be
000002a0: 38e6 1dbe 5640 98be 5682 5e3e e7e5 34bd
000002b0: 97c5 4dbd 8878 44bd d759 643e fb9d 583e
000002c0: c223 cfbd b922 153e d0a3 153e a49e ca3e
000002d0: 8fcf 3a3e 665c 413d 3b0a 95be 1f45 c03e
000002e0: c363 833d 23d8 faba 7ccf 59be 41de 823e
000002f0: 2e04 853e f69b 9ebe a6d9 2ebe b48f 9bbd
00000300: 971e 5bbd 1dbf 5bbe c396 fd3c b9fb a1be
00000310: 00ca 613d ab4f d2bd 06f3 533d 0d97 8d3c
00000320: fe7a 973e e8f1 5e3e 1824 09bb 2957 d63e
00000330: 97ff 963c 12a0 ac3e b5c1 2fbe a626 8e3d
00000340: e152 413e e3b9 13bd be09 833e c239 ec3d
00000350: d2ea a5bd 50a4 c3bd 67d2 803e 143c 00bd
00000360: 5a5b 143e 8e65 0fbe 0dd9 c8bb cc75 7f3d
00000370: 51e0 3c3d a520 fa3d 349a 233e e9d0 bbbd
00000380: 2867 4dbe 1481 8f3e e9f9 4a3e 3819 a63e
00000390: 871b af3c 75aa 273c 7e63 8bbd 294a 7e3e
000003a0: 0970 223c a893 003e 6acf 903d 45d6 4dbd
000003b0: d15c 85bd 9a4a 02be 8760 67bc 33c2 b6bd
000003c0: 4c58 9b3c 60a0 47be 966b 4b3e 22a4 403d
000003d0: 8f82 2bbe 7d5c af3d 7dc9 5e3e 71d6 01be
000003e0: c78c 80bd f2e5 d63c af7d 903d f76e 04bb
000003f0: 2c96 11be e6db 633d 3531 643b c4bf 423e

weight f4 [64]
0.97090423 0.965301 0.8914289 0.9852839 0.92284 0.9888965 0.9692532 0.85600024
0.97494304 0.99763703 0.9545383 0.99769247 0.9283526 0.9673729 0.9919289 0.924464
0.8904285 0.97207093 0.97259575 0.9291627 0.9561428 0.9412641 0.965184 0.94242835
0.94539213 0.91843045 0.8003172 0.95496106 0.85549986 0.97332346 0.9573743 0.9869141
0.9330046 0.98143303 0.92832243 0.9745964 0.96208614 0.943374 0.92676485 0.92224324
0.9102784 0.91824865 0.89551073 0.9421342 0.9028821 0.8840109 0.9396047 0.8931976
0.94250363 0.9617025 0.9685096 0.9935175 0.9649344 0.9769811 0.9319204 0.98193616
0.97400934 0.9560887 0.96233386 0.94124043 0.89258677 0.883426 0.9605609 0.96922696
00000000: 2e8d 783f f71d 773f af34 643f 913b 7c3f
00000010: 3e3f 6c3f 5228 7d3f fa20 783f d522 5b3f
00000020: de95 793f 2465 7f3f 9f5c 743f c668 7f3f
00000030: 84a8 6d3f c0a5 773f 0def 7d3f aca9 6c3f
00000040: 1ff3 633f a4d9 783f 09fc 783f 9bdd 6d3f
00000050: c6c5 743f aff6 703f 4c16 773f fc42 713f
00000060: 3805 723f 421e 6b3f 97e1 4c3f 5478 743f
00000070: 0a02 5b3f ba2b 793f 7b16 753f 67a6 7c3f
00000080: 64d9 6e3f 323f 7b3f 8aa6 6d3f 267f 793f
00000090: 474b 763f f580 713f 7640 6d3f 2218 6c3f
000000a0: 0108 693f 5812 6b3f 3140 653f b52f 713f
000000b0: 4823 673f 8a4e 623f ef89 703f 99a8 643f
000000c0: eb47 713f 2332 763f 3ff0 773f 2a57 7e3f
000000d0: f105 773f 6f1b 7a3f 5692 6e3f 2b60 7b3f
000000e0: ad58 793f 3bc2 743f 835b 763f 22f5 703f
000000f0: 9180 643f 3528 623f 52e7 753f 421f 783f

bias f4 [64]
0.06145922 0.26006573 0.34986576 0.24456687 0.12588854 0.34243026 -0.2252551 0.26258522
-0.28660974 -0.20772396 0.21860982 -0.28400934 0.15388152 0.24586733 0.28127432 -0.31029254
-0.06603848 -0.3153519 -0.16201743 -0.20152527 -0.28371206 0.17675635 -0.27645862 0.18185645
0.30060324 0.26138526 -0.045124695 -0.26760474 -0.04517881 0.32742614 0.15698263 -0.22843857
0.1643562 0.2993643 0.33238333 0.2896545 0.22870441 0.27230176 0.057712078 -0.19369279
-0.16529775 0.06714313 -0.18708932 0.24506989 -0.026071105 0.2573231 0.07629772 0.15271926
0.14307426 -0.092182614 -0.344744 0.23864746 0.29185858 -0.16982627 -0.26176926 -0.2685367
0.2830159 -0.14333779 -0.18814403 0.16692136 -0.208292 -0.205851 0.28654096 0.2345145
00000000: aabc 7b3d 5627 853e 9b21 b33e bd6f 7a3e
00000010: ede8 003e 0553 af3e 46a9 66be 9271 863e
00000020: 83be 92be 97b5 54be 41db 5f3e ac69 91be
00000030: 1e93 1d3e a5c4 7b3e 3003 903e aade 9ebe
00000040: 2f3f 87bd ce75 a1be e6e7 25be a45c 4ebe
00000050: b542 91be 9eff 343e fc8b 8dbe 9438 3a3e
00000060: abe8 993e 4ad4 853e acd4 38bd 7d03 89be
00000070: 6a0d 39bd 66a4 a73e 0ec0 203e cdeb 69be
00000080: fe4c 283e 4746 993e 262e aa3e 984d 943e
00000090: 7d31 6a3e 236b 8b3e 8063 6c3d 6757 46be
000000a0: d043 29be 5682 893d 5894 3fbe 9af3 7a3e
000000b0: 1293 d5bc dabf 833e fb41 9c3d 7062 1c3e
000000c0: 0f82 123e 3dca bcbd 4982 b0be 0060 743e
000000d0: 7d6e 953e f0e6 2dbe 9f06 86be a47d 89be
000000e0: 76e7 903e 24c7 12be d4a8 40be 6fed 2a3e
000000f0: 804a 55be 9bca 52be 7fb5 923e 9224 703e

running_mean f4 [64]
-340.23926 -272.32587 -133.58405 -277.85156 -7.9169436 -305.92065 199.10202 173.8442
67.304924 283.82767 -31.028584 168.83209 -218.412 -104.225555 -298.02182 -63.802555
-225.9203 311.48398 257.3655 266.6213 77.95147 -183.91435 313.33072 -314.56912
-211.75423 -231.90158 -144.73512 88.906784 -239.44261 -269.0647 -131.84753 205.69803
-241.8475 -292.02866 -276.81973 -161.22491 -107.20699 -349.68314 -147.64435 -7.5219927
60.50495 -91.55317 -20.64949 -264.1116 142.50394 -74.76903 -229.7483 -109.39188
-49.579086 307.2637 186.13797 -124.651794 -49.68467 321.56876 233.84242 104.32477
-151.94452 297.03247 161.13512 -145.2753 247.07758 10.094908 -262.41638 -123.35044
00000000: a01e aac3 b629 88c3 8495 05c3 00ed 8ac3
00000010: 9a57 fdc0 d8f5 98c3 1e1a 4743 1dd8 2d43
00000020: 1f9c 8642 f1e9 8d43 8a3a f8c1 04d5 2843
00000030: 7969 5ac3 7c73 d0c2 cb02 95c3 d135 7fc2
00000040: 99eb 61c3 f3bd 9b43 c9ae 8043 874f 8543
00000050: 27e7 9b42 13ea 37c3 55aa 9c43 d948 9dc3
00000060: 15c1 53c3 cee6 67c3 31bc 10c3 46d0 b142
00000070: 4f71 6fc3 4888 86c3 f8d8 03c3 b2b2 4d43
00000080: f6d8 71c3 ab03 92c3 ed68 8ac3 9439 21c3
00000090: fb69 d6c2 71d7 aec3 f4a4 13c3 2ab4 f0c0
000000a0: 1205 7242 391b b7c2 2832 a5c1 490e 84c3
000000b0: 0281 0e43 be89 95c2 91bf 65c3 a4c8 dac2
000000c0: fc50 46c2 c1a1 9943 5223 3a43 b84d f9c2
000000d0: 1abd 46c2 cdc8 a043 a9d7 6943 48a6 d042
000000e0: ccf1 17c3 2884 9443 9722 2143 7a46 11c3
000000f0: dc13 7743 be84 2141 4c35 83c3 6db3 f6c2

running_var f4 [64]
70224.79 44988.42 10825.251 46832.67 38.037468 56772.016 24047.879 18333.03
2748.0894 48868.516 584.2341 17291.326 28938.424 6589.7075 53878.855 2469.4211
30961.977 58856.227 40181.43 43123.082 3686.2903 20518.951 59556.56 60028.27
27201.334 32623.266 12707.657 4794.861 34779.13 43917.707 10545.533 25667.805
35481.656 51733.92 46485.1 15768.218 6972.089 74176.43 13223.334 34.323036
2220.9292 5084.8623 258.6584 42315.32 12318.838 3391.3564 32020.254 7259.0527
1491.3093 57272.06 21017.842 9425.818 1497.5114 62730.41 33172.08 6602.5903
14005.222 53521.55 15751.125 12803.894 37032.934 61.885174 41773.938 9229.881
00000000: 6528 8947 6cbc 2f47 0125 2946 acf0 3647
00000010: 5e26 1842 04c4 5d47 c2df bb46 0f3a 8f46
00000020: 6ec1 2b45 84e4 3e47 fb0e 1244 a716 8746
00000030: d914 e246 a9ed cd45 db76 5247 bd56 1a45
00000040: f4e3 f146 3ae8 6547 6ef5 1c47 1573 2847
00000050: a564 6645 e74d a046 8fa4 6847 457c 6a47
00000060: ab82 d446 88de fe46 a18e 4646 e3d6 9545
00000070: 21db 0747 b58d 2b47 22c6 2446 9c87 c846
00000080: a899 0a47 ec15 4a47 1a95 3547 df60 7646
00000090: b6e0 d945 37e0 9047 569d 4e46 ca4a 0942
000000a0: dece 0a45 e6e6 9e45 4654 8143 524b 2547
000000b0: 5a7b 4046 b4f5 5345 8228 fa46 6cd8 e245
000000c0: e669 ba44 0fb8 5f47 af33 a446 4647 1346
000000d0: 5d30 bb44 690a 7547 1494 0147 b954 ce45
000000e0: e3d4 5a46 8d11 5147 801c 7646 930f 4846
000000f0: efa8 1047 6b8a 7742 f02d 2347 8637 1046

weight_ih_l0 f4 [256, 1]
0.12149299 -0.005364347 -0.040881626 0.057245668 -0.106618725 0.20934321 -0.13634658 -0.120632686
0.05274926 -0.14567658 -0.11049252 0.0582806 0.21438503 -0.25474784 -0.097323634 0.08116443
0.18153599 -0.04643403 -0.08133405 0.08147385 -0.004543842 0.24334836 -0.024557577 -0.16686118
-0.1271549 0.10313696 0.18421413 0.11872656 0.11057961 -0.0045702406 0.1416898 -0.0047161127
0.1131873 -0.036486164 0.036102362 -0.09119232 0.06864631 0.00023154625 0.10015751 0.07991334
-0.07871882 0.13387261 0.08752566 0.005702167 0.12052728 0.17457014 0.023422418 -0.03383979
-0.17973557 -0.037666485 0.05354534 0.009919954 0.20650244 0.07127425 -0.034678165 -0.007981378
0.05598421 0.17978124 -0.12199562 -0.09339314 0.12090324 0.007161905 -0.15469289 -0.094844855
-0.11591685 -0.082687795 0.093540125 0.05957215 0.07450291 0.022266194 -0.33204532 0.09219775
-0.08952908 -0.18443333 -0.07493114 -0.021617573 0.16030069 -0.06300741 0.22185127 -0.3631802
-0.12932797 -0.02913687 -0.12610686 -0.1818839 0.11276897 -0.19869445 0.16415347 -0.043770153
-0.0924021 -0.23059219 -0.18660195 0.038597766 -0.11965684 -0.14089803 -0.020464722 -0.3193236
-0.07353013 -0.029018248 0.027315212 0.1483279 -0.028274074 0.088089384 -0.0074229543 -0.033662766
-0.05188771 0.040711503 0.079846874 0.07159154 -0.24676815 0.16926074 -0.03157046 -0.106208965
-0.22960342 -0.2634875 -0.20775071 -0.09513277 -0.029968832 -0.0066169063 -0.06612842 0.08864502
0.10039258 0.016929783 -0.07425187 -0.06070949 0.021562943 -0.17495868 -0.21435146 -0.2344777
0.16887037 -0.22073686 -0.12648325 0.013069234 -0.042541336 -0.044575483 0.37110075 -0.073701285
0.018911302 -0.07042712 0.24538231 0.15735807 0.20783688 -0.036746036 0.020919964 0.26288193
0.13972044 0.052396204 0.011748953 0.105999455 -0.006625308 -0.2982152 0.107700825 0.007265363
-0.1034008 -0.074176654 -0.029832097 0.112453595 -0.10950235 0.021946313 0.013539339 -0.297599
0.12897985 -0.006242031 0.046115495 -0.03466099 -0.18316649 -0.16755432 0.16550009 -0.013044084
-0.049225286 0.13557869 0.11757421 -0.008462078 0.1937663 0.21823417 -0.103495 -0.30235374
0.029766236 0.20018855 -0.30003783 -0.10863948 0.07586894 -0.05413825 0.07668818 -0.12457551
0.25477695 0.052999176 0.20044965 0.034087785 -0.14945213 -0.15420845 -0.02978525 0.07578893
0.12546577 -0.09139892 0.21780081 0.011886905 -0.08558298 -0.006230237 -0.14430207 -0.16593584
0.11528596 -0.22259054 -0.19663581 0.010541763 0.021612525 -0.13346356 0.019693105 -0.10456617
-0.07035213 0.028625924 -0.08704156 -0.109329194 0.21543705 -0.053336497 0.0051808967 -0.15052548
-0.077539824 0.07440647 0.11772752 0.20505449 -0.07433651 -0.0324438 0.19917265 -0.03465122
0.18952292 -0.16535096 -0.0005414076 0.11862252 0.04934346 0.15923157 0.109212406 0.08288692
-0.14147462 0.051502533 -0.09820215 -0.13048574 -0.034671996 0.12453499 -0.010671638 -0.18812892
-0.22434957 -0.1415646 -0.1131942 -0.001437015 0.1639152 0.052790638 0.106880635 0.045901872
0.0858696 -0.033114947 -0.15328643 0.00846626 0.057011865 0.060028743 0.030327056 -0.22224355
00000000: 51d1 f83d 67c7 afbb 7e73 27bd 6f7a 6a3d
00000010: eb5a dabd 115e 563e 709e 0bbe 450e f7bd
00000020: 9c0f 583d 3e2c 15be e749 e2bd a3b7 6e3d
00000030: c087 5b3e 4f6e 82be 9d51 c7bd 8939 a63d
00000040: 92e4 393e 9c31 3ebd 7792 a6bd c3db a63d
00000050: 82e4 94bb 5030 793e f92c c9bc a8dd 2abe
00000060: e534 02be 7839 d33d a1a2 3c3e e926 f33d
00000070: 9077 e23d f5c1 95bb 2217 113e 9f89 9abb
00000080: bece e73d 8472 15bd 12e0 133d 0ac3 babd
00000090: 7096 8c3d 39cb 7239 611f cd3d 9ba9 a33d
000000a0: 5537 a1bd e715 093e a740 b33d 3ed9 ba3b
000000b0: 02d7 f63d 84c2 323e 5fe0 bf3c 979b 0abd
000000c0: 9a0c 38be 2c48 1abd 5c52 5b3d 4e87 223c
000000d0: 6075 533e 3cf8 913d b10a 0ebd 53c4 02bc
000000e0: b34f 653d 9318 383e d7d8 f9bd e744 bfbd
000000f0: 1e9c f73d 6aae ea3b d067 1ebe 053e c2bd
00000100: d065 edbd 3858 a9bd f791 bf3d ed01 743d
00000110: fb94 983d 9867 b63c d801 aabe 2dd2 bc3d
00000120: 065b b7bd 17dc 3cbe 7f75 99bd 5617 b1bc
00000130: dd25 243e 070a 81bd fb2c 633e c1f2 b9be
00000140: 8d6e 04be 72b0 eebc 2822 01be c63f 3abe
00000150: 6bf3 e63d 8f76 4bbe d917 283e 5548 33bd
00000160: 503d bdbd 5c20 6cbe 9514 3fbe b118 1e3d
00000170: a50e f5bd 9347 10be a2a5 a7bc 627e a3be
00000180: f796 96bd adb7 edbc 27c4 df3c 45e3 173e
00000190: 089f e7bc 3568 b43d 413c f3bb f8e1 09bd
000001a0: 3588 54bd 1bc1 263d c286 a33d 969e 923d
000001b0: cab0 7cbe b052 2d3e 0750 01bd 1684 d9bd
000001c0: 291d 6bbe d5e7 86be 9abc 54be f8d4 c2bd
000001d0: 3281 f5bc a2d2 d8bb 566e 87bd 858b b53d
000001e0: a09a cd3d 54b0 8a3c 5d11 98bd 84aa 78bd
000001f0: c5a4 b03c 5e28 33be f37e 5bbe ec1a 70be
00000200: 5bec 2c3e d808 62be d384 01be 5720 563c
00000210: d33f 2ebd c894 36bd eb00 be3e b3f0 96bd
00000220: e0eb 9a3c 183c 90bd 8045 7b3e 7922 213e
00000230: 31d3 543e 0383 16bd 5860 ab3c 7698 863e
00000240: e012 0f3e 679d 563d ae7e 403c 3e16 d93d
00000250: 1d19 d9bb aaaf 98be 4092 dc3d 4812 ee3b
00000260: ccc3 d3bd eee9 97bd 7162 f4bc 124e e63d
00000270: c542 e0bd c1c8 b33c 1bd4 5d3c e55e 98be
00000280: 4b13 043e f489 ccbb 9ae3 3c3d aff8 0dbd
00000290: ff8f 3bbe 5c93 2bbe db78 293e dbb6 55bc
000002a0: 74a0 49bd 24d5 0a3e bfca f03d 87a4 0abc
000002b0: ac6a 463e c778 5f3e 30f5 d3bd 1cce 9abe
000002c0: 52d8 f33c 3afe 4c3e 8f9e 99be 607e debd
000002d0: 2d61 9b3d 12c0 5dbd b10e 9d3d 7221 ffbd
000002e0: 2072 823e aa15 593d ac42 4d3e a29f 0b3d
000002f0: fb09 19be d2e8 1dbe 3200 f4bc 3a37 9b3d
00000300: 197a 003e 5b2f bbbd 2d07 5f3e 4bc1 423c
00000310: 2146 afbd 0427 ccbb ecc3 13be 16eb 29be
00000320: 0c1b ec3d c6ee 63be e65a 49be 5cb7 2c3c
00000330: c00c b13c acaa 08be 6f53 a13c ca26 d6bd
00000340: c714 90bd ea80 ea3c d842 b2bd fce7 dfbd
00000350: 889b 5c3e 5f77 5abd 83c4 a93b 5a23 1abe
00000360: 33cd 9ebd 6b62 983d 201b f13d cef9 513e
00000370: bd3d 98bd cae3 04bd eaf3 4b3e 70ee 0dbd
00000380: 4c12 423e c351 29be 40ed 0dba 5df0 f23d
00000390: 5e1c 4a3d 9a0d 233e c1aa df3d 9ec0 a93d
000003a0: b9de 10be 52f4 523d 351e c9bd 0e9e 05be
000003b0: 3904 0ebd 330c ff3d 18d8 2ebc dea4 40be
000003c0: e5bb 65be 4ff6 10be 5cd2 e7bd 395a bcba
000003d0: 63d9 273e ff3a 583d 3ce4 da3d 9a03 3c3d
000003e0: 67dc af3d 8aa3 07bd 1ef7 1cbe 11b6 0a3c
000003f0: 4685 693d b3e0 753d 7270 f83c d093 63be

weight_hh_l0 f4 [256, 64]
-0.06822489 0.010136683 -0.032706793 -0.03462936 0.17460841 -0.050316483 0.07124338 -0.14583425
0.25584 0.06399251 -0.14374377 0.054699633 0.07297958 0.0016740712 0.006201587 -0.0061199083
0.11340417 -0.009045618 0.14172667 -0.2347765 -0.17371829 0.06380793 -0.098428376 -0.1925654
0.14592522 0.09604894 -0.19675255 0.14227888 -0.2124103 -0.017243844 0.24640448 -0.094077185
0.13814825 0.10279238 -0.021657508 -0.03630958 -0.03946449 0.006338425 -0.13396278 0.14864168
0.037858102 -0.05159386 0.08776724 -0.10123849 0.02607546 0.050260067 -0.038207304 0.12035495
-0.047644738 -0.044498105 -0.087201506 0.039309848 0.011708711 -0.1234921 0.076772556 -0.1650714
-0.016204955 -0.057340834 -0.21890955 0.060190972 -0.12488065 -0.045524705 0.03689547 -0.13069257
-0.16219193 -0.03679923 0.07267482 -0.06361718 0.1747863 -0.07528974 0.027479885 0.08306172
0.18383911 -0.16532204 0.0270588 -0.090175904 -0.17448218 0.14863738 0.027501624 -0.00018183178
-0.0719829 -0.009413535 -0.0073170727 -0.17674407 -0.08092026 -0.03792986 -0.03963339 -0.17539349
0.20599943 0.11464605 -0.08997362 -0.01744451 0.06569581 -0.0021196927 0.18414518 -0.057849236
0.083075754 -0.13255654 -0.16112085 0.002976827 0.16109398 0.04277078 0.04917925 0.09689047
-0.0069455015 -0.07744868 0.04004968 -0.106465526 -0.0643349 0.034365978 0.065829106 0.10173369
0.10898083 0.004554461 0.012011696 -0.03427784 -0.13441512 0.0030582868 0.023671703 0.109112285
-0.1308227 -0.058281127 -0.03829741 -0.055671606 0.024093283 0.018738579 -0.040826462 0.026312038
0.10126302 -0.0657973 -0.20518975 -0.06762694 -0.12070114 0.07913063 0.18519458 -0.16425498
0.045959063 -0.03236846 0.057521425 -0.048431754 0.025296176 -0.051874287 -0.047786873 -0.27514488
-0.06253644 -0.14479752 0.14002526 -0.020825617 0.021502195 0.0033282682 -0.014269269 -0.102637924
0.13875403 0.1492325 0.030518949 0.12807956 0.047661602 -0.011992696 0.0926978 -0.19257036
0.082562596 0.13484772 0.033813976 0.03570754 -0.07950731 0.025982723 -0.14014764 -0.025663333
0.123617776 0.097253256 0.054402392 -0.10505485 -0.13529061 0.04182903 0.06575799 -0.05256539
0.07205391 -0.046051048 0.054477334 0.017293999 -0.1757146 -0.032173865 -0.039021373 0.07775997
0.045170933 0.0058963033 -0.07868115 0.078685984 0.031878907 0.014915576 0.020118114 0.034469463
-0.052950338 0.07996489 -0.1711396 -0.0059414194 -0.026161075 0.1287136 -0.121076144 0.060403325
0.049008057 0.09443117 -0.1918369 0.16584294 0.050359353 0.009029485 0.027426265 -0.20570433
0.18640733 -0.051428735 0.025943892 -0.12625216 -0.20976482 0.06156642 0.013266602 -0.014287101
-0.0685962 0.04824221 -0.15596688 -0.015280152 0.0461996 -0.06446787 -0.08171564 0.0033882754
0.19317839 -0.06367103 0.052831843 -0.22843379 -0.28547403 -0.012981335 -0.14317405 0.017615627
-0.046306532 -0.06737471 0.22926223 -0.08053315 -0.117333025 0.16102384 -0.13478145 0.35208836
-0.11721898 0.0044567105 0.06798163 0.1241562 0.1656849 -0.121388115 -0.09791491 -0.06492816
0.1019922 -0.017192505 -0.30111098 -0.16205217 -0.13175815 -0.06996037 -0.1417634 -0.22022505
00000000: 7eb9 8bbd 5414 263c 8ff7 05bd 84d7 0dbd
00000010: 8ccc 323e a818 4ebd 0de8 913d 9355 15be
00000020: 76fd 823e 810e 833d 9131 13be b90c 603d
00000030: 5176 953d 826c db3a af36 cb3b 8389 c8bb
00000040: 7240 e83d 1234 14bc cc20 113e 4069 70be
00000050: 35e3 31be bbad 823d d194 c9bd dd2f 45be
00000060: 6c6d 153e 4fb5 c43d 8079 49be 8eb1 113e
00000070: 1682 59be f642 8dbc 7551 7c3e 8aab c0bd
00000080: bc76 0d3e d084 d23d 166b b1bc 5bb9 14bd
00000090: 84a5 21bd 90b2 cf3b 8a2d 09be 8635 183e
000000a0: 1911 1b3d 1554 53bd 50bf b33d 2056 cfbd
000000b0: 349c d53c 80dd 4d3d 437f 1cbd a87c f63d
000000c0: 2127 43bd a543 36bd b496 b2bd 5d03 213d
000000d0: e5d5 3f3c 6de9 fcbd ee3a 9d3d 7a08 29be
000000e0: 41c0 84bc 39de 6abd d329 60be cf8a 763d
000000f0: 6dc1 ffbd 1d78 3abd b41f 173d 46d4 05be
00000100: a415 26be caba 16bd 89d6 943d b949 82bd
00000110: 2efb 323e 8231 9abd 7f1d e13c 431c aa3d
00000120: 5240 3c3e 2e4a 29be 6baa dd3c 25ae b8bd
00000130: 75ab 32be 6634 183e 164b e13c 19aa 3eb9
00000140: c56b 93bd 3a3b 1abc 0ec4 efbb 66fc 34be
00000150: 85b9 a5bd 575c 1bbd 9f56 22bd 5a9a 33be
00000160: 84f1 523e 8ccb ea3d 1744 b8bd cae7 8ebc
00000170: 868b 863d 8bea 0abb 8e90 3c3e 52f3 6cbd
00000180: 9f23 aa3d e7bc 07be ddfc 24be df16 433b
00000190: d2f5 243e 6a30 2f3d 2e70 493d 836e c63d
000001a0: 1797 e3bb 6a9d 9ebd 220b 243d 990a dabd
000001b0: 04c2 83bd 57c3 0c3d 69d1 863d c159 d03d
000001c0: 5731 df3d 973d 953b b4cc 443c ec66 0cbd
000001d0: 1ea4 09be 8a6d 483b 29eb c13c 4376 df3d
000001e0: 63f6 05be 31b8 6ebd bfdd 1cbd e907 64bd
000001f0: 475f c53c a681 993c a639 27bd 588c d73c
00000200: fc62 cf3d bcc0 86bd 431d 52be fe7f 8abd
00000210: 2932 f7bd 3d0f a23d a6a3 3d3e 7532 28be
00000220: 923f 3c3d ca94 04bd 969b 6b3d 6060 46bd
00000230: ed39 cf3c 227a 54bd 2bbc 43bd cadf 8cbe
00000240: 1b13 80bd cd45 14be c862 0f3e 7c9a aabc
00000250: 5f25 b03c 131f 5a3b a7c9 69bc d533 d2bd
00000260: 8915 0e3e 68d0 183e e002 fa3c 4a27 033e
00000270: d038 433d 037d 44bc 58d8 bd3d 2a31 45be
00000280: 9416 a93d 8515 0a3e 8680 0a3d 1242 123d
00000290: bbd4 a2bd b8d9 d43c dd82 0fbe e93b d2bc
000002a0: 512b fd3d b72c c73d 0bd5 5e3d ff26 d7bd
000002b0: 9f89 0abe eb54 2b3d 20ac 863d ce4e 57bd
000002c0: 0091 933d 06a0 3cbd a023 5f3d 25ac 8d3c
000002d0: 87ee 33be bec8 03bd e0d4 1fbd 9f40 9f3d
000002e0: 2805 393d c735 c13b 9523 a1bd 1e26 a13d
000002f0: 7593 023d 7660 743c bece a43c da2f 0d3d
00000300: 74e2 58bd a2c4 a33d 383f 2fbe 3db0 c2bb
00000310: c04f d6bc 7fcd 033e c5f6 f7bd 7a69 773d
00000320: acbc 483d 2165 c13d e470 44be bbd2 293e
00000330: 9c45 4e3d 68f0 133c 0cad e03c 28a4 52be
00000340: 90e1 3e3e f0a6 52bd 4988 d43c 3f48 01be
00000350: 97cc 56be 122d 7c3d 295c 593c 7214 6abc
00000360: 2a7c 8cbd a099 453d c8b5 1fbe 9a59 7abc
00000370: cb3b 3d3d bb07 84bd 885a a7bd d40d 5e3b
00000380: 8ed0 453e f565 82bd 3466 583d 8cea 69be
00000390: a729 92be aaaf 54bc 389c 12be a64e 903c
000003a0: ebab 3dbd c1fb 89bd b8c3 6a3e 90ee a4bd
000003b0: 4c4c f0bd 6fe3 243e 2604 0abe ed44 b43e
000003c0: 8110 f0bd 9909 923b f439 8b3d 9b45 fe3d
000003d0: 4da9 293e 559a f8bd 9d87 c8bd 0ef9 84bd
000003e0: 49e1 d03d 4cd7 8cbc 382b 9abe 01f1 25be
000003f0: 9ceb 06be 6247 8fbd 6d2a 11be ad82 61be
